gst_updated/results/100-gumbel_social_transformer-faster_lstm-lr_0.001-init_temp_0.5-edge_head_0-ebd_64-snl_1-snh_8-seed_1000/sj/checkpoint/epoch_100.pt (torch, 827916 bytes, 60 tensors)

gumbel_social_transformer.node_embedding.weight f4 [64, 2]
000000 fd 50 b1 be e3 75 63 3e ab 34 21 be 73 c3 9d be
       -0.34632102 0.22212939 -0.15742747 -0.30813178
000010 cb f7 f6 be 64 cc 84 3e 41 6e 92 be 55 31 61 be
       -0.48235926 0.25937188 -0.28599742 -0.21991475
000020 cc 3f b4 be 2b b4 18 3d c3 43 2b be 1b 3d ab 3d
       -0.35204923 0.037281197 -0.16725068 0.08361264
000030 ec 57 9e be 6d 11 31 bf 6b 35 08 3f 43 75 82 bf
       -0.30926454 -0.69167215 0.5320651 -1.0192035
000040 a0 38 a9 3e f4 00 90 bf 02 59 77 bd 65 2b 91 bf
       0.33051014 -1.1250291 -0.06038762 -1.1341368
000050 6d 99 81 bf 6e aa f7 3e a7 3e 82 bf 68 48 50 bf
       -1.0124947 0.48372215 -1.017537 -0.81360483
000060 09 75 10 bd 72 00 0e be b6 13 4d 3e ed b3 2e be
       -0.035267863 -0.13867357 0.2002705 -0.17060824
000070 04 c7 28 be 42 b9 b9 3e 21 6c 56 3f 9b 0d 1a bf
       -0.16482168 0.36274153 0.8375874 -0.6017701
000080 1f 5a e7 3e 70 00 9b 3f 05 8b 6e 3f c9 60 73 3f
       0.45185944 1.2109509 0.93180877 0.9506956
000090 e4 4c c8 bd fc 49 49 3d ae 75 d6 bd 75 1a 46 3d
       -0.09780291 0.049142823 -0.10471664 0.048365075
0000a0 4e 5f 52 be e1 3a 8f bf ae d9 6b be f7 77 81 3f
       -0.20544168 -1.1189843 -0.23032257 1.0114735
0000b0 1c 39 61 3f 8d 46 be 3e db 3a 4b 3f 12 ee 8e bf
       0.87977767 0.371632 0.7938668 -1.1166403
0000c0 df dc 60 3e 17 6c f9 bd aa 54 47 3f 26 2c dc 3e
       0.21959256 -0.121788196 0.7786356 0.43002433
0000d0 15 af 3e 3f 4e e0 1c 3f 7d 39 ef be 0b 41 27 bf
       0.74485904 0.6127976 -0.46723548 -0.6533362
0000e0 0e 99 8c bf 16 db 80 3e c1 32 68 3f 25 4b 5b 3f
       -1.0984209 0.2516715 0.90702444 0.85661536
0000f0 f1 d8 85 3d 39 a4 d0 be 4f 9a 7d be 99 27 5f bf
       0.06535519 -0.40750292 -0.24765895 -0.87169796
000100 27 2c fa 3e d2 ef b8 3e 82 69 47 bf ef a4 4d be
       0.4886181 0.36120468 -0.7789537 -0.20082448
000110 3f ab e8 3e 5a ef 86 3e 05 e7 82 bf 14 c4 20 3d
       0.4544315 0.26354486 -1.0226752 0.039249495
000120 05 68 a2 3e ac 50 1c 3e ae 0a 41 3f e4 be 20 3f
       0.31719986 0.15265149 0.7540692 0.62791276
000130 1c 31 7e bf 07 1e 10 3e b8 48 c8 be 0b 89 ca 3d
       -0.99293685 0.14073955 -0.3911798 0.0988942
000140 db 0f 30 3f 4f 39 55 bf 5a aa bf 3e b0 c8 5a 3f
       0.68774194 -0.8329057 0.37434655 0.85462475
000150 69 bd 81 bf 00 69 8d bd cc 40 1d bf 76 66 5d 3f
       -1.0135928 -0.06904793 -0.61427 0.8648447
000160 57 1d e4 3e ed e8 a8 be 67 64 0c bf f8 f9 5d bf
       0.44553635 -0.32990208 -0.548407 -0.8670955
000170 ff ac 6d bf 15 68 c3 be 18 b9 05 3f 70 aa 6a bf
       -0.92842096 -0.38165346 0.52235556 -0.91666317
000180 98 90 ca 3e 04 77 1b 3f 4e f6 c2 be b3 2b 8d 3f
       0.3956344 0.6072848 -0.3807854 1.1028961
000190 2e 10 8c bf 5a c6 48 3f 36 b6 14 3d 3e 2a 9f 3e
       -1.0942438 0.7842766 0.036306582 0.31086916
0001a0 11 e0 13 be 22 7f 94 3d f6 f9 92 3d 20 82 21 3e
       -0.14440943 0.07250811 0.071765825 0.15772295
0001b0 3a 50 84 bf 8f 55 c6 be e5 f6 60 3f 04 0d 40 3e
       -1.0336983 -0.3873715 0.8787673 0.18754965
0001c0 c3 d7 63 3f d5 d0 25 3f a2 a2 fc be 7e e9 9e 3d
       0.890011 0.6477178 -0.4934283 0.07759379
0001d0 db da 6d 3e 97 55 08 3f 05 d2 4c bf 9d 7d 9b be
       0.23228018 0.532556 -0.80007964 -0.30369273
0001e0 32 cd 6a 3d 35 8b d9 be c6 07 64 3f 62 1a 72 bf
       0.057324596 -0.4248902 0.8907436 -0.94571507
0001f0 cf 93 15 bf f0 32 3c 3d 2d 65 7d 3f e8 9b af be
       -0.58428663 0.045947015 0.98982507 -0.34298635

gumbel_social_transformer.node_embedding.bias f4 [64]
000000 7e 0d 91 be 43 2a 48 bc 0e 89 e7 bc 6f 76 74 be
       -0.28330606 -0.012217107 -0.028263595 -0.23873304
000010 5a 54 13 be a5 40 b3 3c 7b 3c 44 bc 1a 30 f1 bd
       -0.14387646 0.02188141 -0.01197731 -0.11776753
000020 e7 dc cc 3e b6 10 68 be a8 33 fd 3d e9 2f ac 3e
       0.40012285 -0.22662625 0.12363368 0.33630303
000030 2b de 11 3f ba f6 05 bf 23 06 9b 3e 07 ce 6b 3e
       0.56979626 -0.523296 0.3027812 0.23027812
000040 92 5f f8 3e 47 2b 00 3f f8 c9 59 3e 5a 96 aa bc
       0.48510414 0.50066036 0.21268451 -0.020823646
000050 d1 57 a3 be f8 90 8a bc e5 e0 39 3e fa f5 a1 3e
       -0.31902936 -0.01691483 0.18152197 0.31632978
000060 1c b4 0d 3c aa ce 8e bd 67 3b de 3e 61 0e 28 3e
       0.008648898 -0.06973012 0.43404695 0.16411735
000070 e5 2a b4 bd 44 63 05 3f 59 8a bc 3e 24 a5 15 bf
       -0.08797244 0.5210459 0.368243 -0.5845511
000080 86 6a da be 4b 02 e8 be a2 4f 0e bd a2 d5 19 bf
       -0.42659396 -0.4531425 -0.034743913 -0.600916
000090 83 ee 11 3f 65 bc 8d 3e 64 c6 d5 be 89 12 9f 3d
       0.57004565 0.27682796 -0.41752923 0.07767207
0000a0 f9 7c df 3e 88 3e 0e 3e b6 38 62 3e c5 83 da 3e
       0.43650034 0.13891041 0.22091946 0.42678657
0000b0 e0 8e e0 be bf 27 90 bc f0 17 0e 3e 2f f3 3e be
       -0.43859005 -0.017597077 0.13876319 -0.18647455
0000c0 35 da 4d 3e 85 67 94 be f8 0a 99 3e 0d eb 68 bd
       0.2010277 -0.2898523 0.2989118 -0.056864787
0000d0 ba 3c dd bd b5 7a b2 3e 89 18 f7 3e b1 69 81 be
       -0.10802598 0.34859243 0.48260906 -0.2527595
0000e0 ae 5a a0 be 53 d7 1d 3e 5b fd 20 3e 7a 80 5c be
       -0.31319183 0.15414171 0.15721647 -0.21533385
0000f0 b2 85 52 3e a3 0b 7a be 62 92 4e 3d 93 1f 0e 3f
       0.20558813 -0.24418502 0.05043257 0.5551693

gumbel_social_transformer.node_encoder_layers.0.self_attn.in_proj_weight f4 [192, 64]
000000 e0 83 8c be d0 1a 3a bd d9 db a4 be 18 70 4d bd
       -0.27444363 -0.045435727 -0.3219898 -0.05015573
000010 f6 af a5 be 41 95 89 be d9 d9 ac bb 57 45 99 3d
       -0.3236081 -0.26871684 -0.005274993 0.07483929
000020 1b 89 88 3e 89 87 1c be d0 d3 84 bd 01 e6 a6 3b
       0.26667103 -0.15286078 -0.064857125 0.0050933366
000030 f9 f5 f4 3d 50 09 30 be 36 5c b9 3d b6 cf c0 3e
       0.11960978 -0.17191052 0.09050791 0.3765847
000040 05 7a 19 3e 95 32 3d 3e c7 94 16 bd 74 47 27 3e
       0.14987953 0.18476327 -0.03676298 0.16335851
000050 60 d9 a3 3a 6e 75 27 be 25 1f c3 3e 4c 4e 85 3e
       0.0012500696 -0.1635339 0.381097 0.26036298
000060 2d c9 af 3c 5d 47 6d 3e 4b 44 f4 3d f6 02 68 bd
       0.021458233 0.23171754 0.11927088 -0.05664345
000070 5d 82 10 be d5 59 4c 3d 1c 55 bf bc 34 19 0d be
       -0.1411223 0.049890358 -0.023356013 -0.13779145
000080 47 f1 7f bc 23 95 72 bd 0d c2 37 3e 23 a5 71 bc
       -0.01562149 -0.05922426 0.17945118 -0.014748844
000090 15 d6 34 bd 1c 09 f3 3c 40 b1 6b be ce c2 85 be
       -0.044149477 0.02966743 -0.23016834 -0.26125187
0000a0 2d 8a 1c 3e b4 aa 51 bd 21 12 ae bd d0 7a 20 3d
       0.15287085 -0.051188186 -0.084995516 0.039179623
0000b0 98 4d 0d 3e 57 de fa bd 47 9b 71 be f7 f2 8f bc
       0.13799131 -0.12249439 -0.2359439 -0.01757191
0000c0 bf da 80 3e 4e 67 94 be cb d8 82 3d ba da 59 be
       0.2516689 -0.28985065 0.06389006 -0.21274844
0000d0 f8 24 95 be d7 e9 c6 3d bd a3 9c 3d 20 47 e6 3d
       -0.29129767 0.0971257 0.07648418 0.11244035
0000e0 de 4f 10 3c f7 e6 ec bd 7a d3 7a 3e 8f 4e 46 be
       0.008808104 -0.115674905 0.24494734 -0.19365905
0000f0 b9 5b 7c 3d 20 22 ff 3d 64 9a 49 be ae 11 a4 3d
       0.06161091 0.12457681 -0.19687802 0.08011185
000100 92 3f 3a 3e 8f 00 e6 3e 42 b3 58 bd 08 4f dd 3d
       0.18188313 0.449223 -0.05290533 0.1080609
000110 13 19 00 3e 58 1f e8 bb 4e 6d e5 3e 95 bf ce 3e
       0.12509565 -0.0070838146 0.44809955 0.4038054
000120 55 29 56 bd 15 c6 b9 3e 99 b1 8d be 6b 27 0e bc
       -0.05228551 0.36283937 -0.2767456 -0.00867639
000130 31 24 b3 ba a2 3e 52 3e a1 c5 41 be 74 88 a1 bd
       -0.0013667402 0.20531705 -0.18923046 -0.078873545
000140 b9 bf 95 be 8b cc af be a5 46 2a bd e4 39 fa 3b
       -0.29247835 -0.3433574 -0.041571278 0.0076362956
000150 85 91 fc 3e 92 9e 59 be bc 8f b5 be b2 b0 86 3d
       0.49329773 -0.21251896 -0.35461223 0.06576671
000160 24 73 1a 3d 52 78 90 bd 0d 53 7d be 3e 02 d0 bc
       0.037707463 -0.07054199 -0.24738713 -0.025391694
000170 c0 0d f1 bd 76 e4 bb be 8b 1d 81 bd c6 65 83 3e
       -0.11770201 -0.3669774 -0.06304463 0.25663584
000180 fa f7 77 3e 98 f3 99 3e de 37 09 be f9 cd 49 3d
       0.2421569 0.3006866 -0.13400218 0.049268696
000190 ab ba 53 bd 0c 4f 06 bf 38 69 6f bd bd 7c 0d bd
       -0.051691692 -0.52464366 -0.058449954 -0.034542788
0001a0 45 db 5c bd 8b 92 30 be 9d 19 07 be d7 21 91 be
       -0.05392005 -0.17243402 -0.13193364 -0.2834613
0001b0 77 6a 88 3e eb 7f 7d 3e be 22 0c 3e b8 13 c2 3e
       0.26643726 0.24755828 0.13685128 0.3790567
0001c0 65 82 e2 be e9 86 f0 bd 7d 2c 52 be 0f 6f 4d 3d
       -0.44240108 -0.11744482 -0.20524783 0.05015474
0001d0 d4 3d d4 3d 7d 6e 36 be 08 95 6c be 2f eb 18 3e
       0.10363355 -0.17815585 -0.23103726 0.14933465
0001e0 37 bc f3 bb a8 0e e2 3c 4b 2f 08 bf ba 99 13 3e
       -0.0074382084 0.02759488 -0.53197163 0.14414111
0001f0 67 f0 81 bd 91 02 dc 3e 80 f2 23 be 2a c3 05 bd
       -0.06344681 0.42970708 -0.16010475 -0.032656826
000200 34 c6 fe 3c 64 04 a4 bd 35 4c 57 3e 22 ea a3 bd
       0.03110037 -0.0800865 0.21025164 -0.08003642
000210 fc a4 a8 3d 4d 95 5e 3d af 00 f3 bd 91 45 07 bd
       0.08234593 0.054341603 -0.11865365 -0.033025328
000220 2c 57 2d be 49 bf 26 3e 6b 04 0f 3e 92 21 f4 bc
       -0.16927785 0.16283907 0.13966529 -0.029801164
000230 1d 95 91 bd 3c 55 a6 bd 08 77 84 3d 23 2b 97 bd
       -0.07108519 -0.08121726 0.06468016 -0.073812746
000240 f9 98 81 3d 89 6f 30 3d c6 5b 99 bd 10 5e 64 3e
       0.06328005 0.04307512 -0.074882075 0.22301507
000250 66 df 81 bd 87 5f 19 3d 0e 76 b9 bd a2 07 91 bd
       -0.06341438 0.037444618 -0.0905572 -0.07081534
000260 58 77 cb 3d 18 ca 65 bd c0 10 2c be 0e d5 df 3c
       0.099348724 -0.056100935 -0.16803265 0.027323272
000270 75 88 ab 3d 95 61 04 bd 06 1b 0c 3d c2 ef 75 bc
       0.083756365 -0.032319624 0.03420546 -0.015010776
000280 8b 38 03 3e e8 d5 65 bd 1e cb e5 3d 81 42 8c bd
       0.12814538 -0.0561122 0.11220382 -0.06848622
000290 e6 c3 8a 3d 39 55 70 be 5e 19 d1 3d ad cf e4 3c
       0.06775646 -0.2347001 0.102099165 0.027931059
0002a0 81 01 10 bc 7a 21 9d bd b5 1b fb 3c af 67 81 bd
       -0.008789421 -0.07672401 0.03065286 -0.06318604
0002b0 0a 52 99 bd 6b 2b 68 bd 56 5e 08 3e 7c 86 17 3e
       -0.07486351 -0.05668203 0.13317236 0.14797395
0002c0 1d 5d 86 3b ce 6f fb 3d ab 97 5e bd e5 c3 8f 3d
       0.0041004554 0.122771844 -0.05434386 0.07019786
0002d0 14 07 3b 3d 20 a3 3e be 3a 52 d9 3d 7e 2f 3a bc
       0.045661047 -0.18616915 0.106113866 -0.011363862
0002e0 6b 49 26 3e 89 67 64 3d 14 50 9d bd 61 9e 2c 3d
       0.16238944 0.0557628 -0.07681289 0.04214323
0002f0 2b 5b 77 be be 99 a3 bb b5 23 0f 3d fa 2f 1a be
       -0.24155872 -0.0049926927 0.034946162 -0.15057364
000300 cd 14 09 be 27 7f 08 be 35 76 32 3c 62 f2 47 be
       -0.13386841 -0.13329755 0.010892441 -0.19526055
000310 12 8d 18 be 0b 24 58 be 5e b6 93 be 23 09 cf bd
       -0.14897564 -0.211075 -0.28850073 -0.101091646
000320 e6 b4 62 3d 8c 3f a5 be b8 42 2f 3e 2e 67 3a be
       0.0553483 -0.32275045 0.17115295 -0.18203422
000330 87 98 0e 3e 23 00 fe bc e7 f9 f0 3d a8 d8 6d 3e
       0.13925372 -0.031005925 0.11766415 0.23227179
000340 2d c8 01 3e 7b c1 87 3e cf 5f 23 be e8 98 7d bd
       0.12674017 0.265148 -0.15954517 -0.0619134
000350 cd 70 eb bd 12 e3 50 3c 2c f8 00 3e 96 76 33 3e
       -0.114961244 0.01274945 0.1259467 0.17525706
000360 a6 ae 83 3d 5e b3 30 3d f2 11 4a 3e 64 ce 41 bd
       0.06429796 0.043139808 0.19733408 -0.04731597
000370 79 39 0d bd 63 2a 14 3e cf dd 2f 3e 5d d2 7f be
       -0.03447864 0.14469294 0.17174457 -0.24982591
000380 1d 6e 25 be 24 51 82 be 9f 41 57 3e e9 0c 7d bb
       -0.16155286 -0.2545253 0.21021126 -0.0038612431
000390 23 68 73 3d 60 9d 00 3e c6 ed 06 be 36 d0 94 3d
       0.059425484 0.12560034 -0.13176641 0.072662756
0003a0 d6 22 07 3e 10 65 94 3e 24 d5 9d bd 02 d5 b5 bc
       0.13196883 0.28983355 -0.07706669 -0.022196297
0003b0 2f fe 58 be b0 7a 70 be 6d f9 46 3d 37 3e 78 be
       -0.21190713 -0.23484302 0.048577715 -0.24242483
0003c0 d6 e2 49 3e 47 60 2b 3d 79 b5 32 bd 6c 58 6b 3d
       0.19715437 0.041839864 -0.043630097 0.057457373
0003d0 55 c4 0e be 61 fb a6 3d 77 7e dc 3d 42 4b 87 bd
       -0.13942082 0.081534155 0.10766309 -0.06606151
0003e0 80 e1 44 bd 48 73 3d be 5a 78 c3 3e ac 0a 1e be
       -0.048066616 -0.18501008 0.38177758 -0.15433758
0003f0 f2 61 34 3d 4e 66 eb bd 15 a7 07 be 52 96 a2 3d
       0.04403872 -0.114941224 -0.1324733 0.079388276

gumbel_social_transformer.node_encoder_layers.0.self_attn.in_proj_bias f4 [192]
000000 4e d7 88 3d 06 11 19 be af 54 1b bd 78 87 95 3d
       0.06681691 -0.149479 -0.037922557 0.07301229
000010 cf a4 43 3d 2c de a9 bd a5 22 ba 3d 8d 92 31 3d
       0.047764596 -0.08294329 0.09088639 0.043352652
000020 63 87 6d 3c 51 68 ff 3c 65 9c 6a 3d c8 df 52 bd
       0.014497611 0.031177672 0.057278056 -0.051482946
000030 ed 73 72 bd 54 12 cc ba b6 d1 1b bd a2 09 2c bd
       -0.059192587 -0.0015569427 -0.038041793 -0.042001374
000040 3f 76 e9 3d 92 9c 44 3e e7 76 7c bd fb 80 3e be
       0.11399507 0.19200352 -0.06163683 -0.1860389
000050 61 6e 0a be 15 11 4a 3e c7 cf 3c be 45 c8 3c be
       -0.13518669 0.19733079 -0.18438636 -0.18435772
000060 db 15 e2 3d 15 5d fb bd 09 4b 96 3d ff 7f 1f be
       0.11039325 -0.12273613 0.073385306 -0.1557617
000070 47 92 53 3e 99 ee 57 be 77 b7 3b be 5a bc 03 be
       0.20661269 -0.21087112 -0.18331705 -0.12864819
000080 29 71 b1 bd 2b ed a8 bd 91 89 ca bc d7 cf b0 bd
       -0.08664162 -0.08248361 -0.0247238 -0.08633392
000090 55 57 2c be 1e da 35 3e 0b 97 12 be 93 36 25 3e
       -0.1683019 0.17758986 -0.14315431 0.161341
0000a0 ba dc 71 3d 6b cc ac bd d1 02 b5 3c a5 b7 07 3e
       0.059048392 -0.08437427 0.02209607 0.13253649
0000b0 8b ba 3a 3d 20 07 2f bd 6d 41 8e 3d 1e bb 1d be
       0.045588057 -0.042731404 0.06946073 -0.15403411
0000c0 13 df 54 be b2 ca 60 be c9 a6 07 3e 87 58 2d be
       -0.20788221 -0.21952322 0.13247217 -0.16928302
0000d0 ad 61 08 3e e0 4e 38 3e 64 7c 14 3e 60 7d 3e 3e
       0.1331851 0.17998838 0.14500576 0.18602514
0000e0 2a e2 cd bc 2b 8e a3 3d 00 c1 be ba 42 f7 e0 bd
       -0.025132257 0.07986101 -0.0014553368 -0.10984661
0000f0 a9 9f cd 3c 8f 01 80 3b 5e 07 e4 bd 25 35 c3 bd
       0.025100546 0.003906436 -0.11134218 -0.09531621
000100 e4 e2 5f 3c 63 28 ce bc 81 83 2d bc 10 37 e9 bc
       0.013664935 -0.025165742 -0.010590435 -0.028468639
000110 a2 db 95 bc e6 8b 9c 3c 80 65 0b bc 48 d1 f1 3b
       -0.018293206 0.019109678 -0.008508086 0.0073796846
000120 19 2e 07 3b 7a 29 db bc 97 85 c0 bc 91 0f 6c bc
       0.0020626842 -0.026753176 -0.0235012 -0.014408008
000130 e4 ce 94 3c 6b a6 01 bc ae f2 3f 3c 79 8e 72 3d
       0.01816506 -0.007913212 0.011715574 0.059217904
000140 5c 81 3a 3c 2f 66 82 3c f6 9d 9b bc 75 15 0e bd
       0.011383381 0.015917866 -0.01899622 -0.03468843
000150 0b 7b 92 bc 6d 95 3d 3d 98 b0 01 bd a0 3c 3e bd
       -0.017880937 0.04628508 -0.031662554 -0.046444535
000160 c0 53 da 3c d3 3c dd bb aa f9 7f 3c e8 b6 c6 bc
       0.026651263 -0.0067516356 0.015623489 -0.024257138
000170 c5 38 b0 3c 91 bc 29 bd ec a7 bb bc 30 79 07 bc
       0.021511445 -0.041439597 -0.02290722 -0.008268639
000180 7e d7 4c ba 9b d0 9f bb 37 45 87 3b 77 66 47 bb
       -0.0007814093 -0.0048771626 0.004128124 -0.0030426064
000190 ef c8 ac 3c 5c 45 7e bc e1 b9 c8 ba 19 22 2f bc
       0.021091906 -0.015519466 -0.0015314185 -0.010689282
0001a0 d8 c7 b3 3c 92 0c cf 3b 2e ef 80 ba ce 52 ca bb
       0.021945879 0.006318637 -0.0009836906 -0.006174422
0001b0 ff 2b 5b bc 7a ec 7e bb 45 9e 46 3b 96 ef 0e 39
       -0.013377189 -0.0038898275 0.0030306738 0.00013631428
0001c0 ef b9 b0 3a 90 a8 10 3c 20 ae 10 3b 0f 0c f4 3b
       0.0013483147 0.008829251 0.0022076443 0.0074477266
0001d0 ce 27 c8 bb c4 2b fd bb ac 25 0d 3c 4a 15 d8 3b
       -0.0061082607 -0.0077261645 0.008614939 0.0065943347
0001e0 47 e2 a6 3c c0 83 d2 bc 65 8e 02 bc 63 71 b6 bc
       0.02037157 -0.025697589 -0.00796852 -0.022270864
0001f0 da 5e ec 3b 83 f6 49 3c 21 ca 9d bc 03 eb bb bc
       0.0072134556 0.012326839 -0.019261422 -0.02293921
000200 13 55 dd ba f7 d8 4c 3c 83 b1 a8 3c 36 6e 9e bb
       -0.0016886316 0.0125029 0.020592457 -0.0048349155
000210 eb e8 2c 3d 0c f3 dd 3c 00 cb a2 bb 63 ce e5 bb
       0.042214315 0.027093433 -0.004968047 -0.0070131286
000220 c1 6b 20 bd ad 6b 57 bc df ca ea bb 92 b8 23 bd
       -0.039165262 -0.0131482305 -0.0071652974 -0.03997094
000230 43 90 75 3c 72 59 ed ba 8b 0f 14 bc 2f 33 3e 3c
       0.014988008 -0.0018108322 -0.009036909 0.011608883
000240 cd af 72 3c dd a6 54 3c 3b 87 84 bd a2 15 d4 bb
       0.014812422 0.012979236 -0.06471106 -0.0064723054
000250 e5 b8 25 bb 3a 4d f7 bb 44 1a c2 bc 66 1b a7 3b
       -0.0025287208 -0.007547048 -0.023694165 0.0050997017
000260 31 24 de 3b 3e 68 70 3c 5f 4d e0 bc e3 d6 36 3c
       0.0067792167 0.014673291 -0.027380643 0.011159631
000270 63 e8 19 bd a5 ce 06 bd d0 85 03 bc ec 5c a7 3c
       -0.037575137 -0.032911915 -0.008027509 0.02043005
000280 21 5c 57 bc af b2 c5 bc 6b 04 43 3d 02 83 36 3d
       -0.013144524 -0.024133055 0.047611635 0.044558533
000290 5b c1 23 3c 22 da 95 3c e4 62 c6 3c 13 05 d4 3b
       0.00999483 0.01829249 0.024217077 0.0064703315
0002a0 a5 ab c3 3b 1d e8 bb 3b c3 60 20 3d d7 a2 7d 3c
       0.0059713894 0.005734457 0.03915478 0.015480719
0002b0 f9 f9 9f bb e8 af 85 3c 6e 7c 10 bd 12 68 bc bc
       -0.004882094 0.01631923 -0.035274915 -0.022998843
0002c0 ac 91 68 bd 3d 8f 5c 39 93 20 82 3d 3f fc 44 bc
       -0.05677955 0.00021034195 0.06353869 -0.012023031
0002d0 d1 56 57 bc 15 67 64 39 06 03 88 3c 53 f2 0f bc
       -0.013143257 0.00021782175 0.016603004 -0.008785802
0002e0 c8 08 ee 3c f9 77 b3 3c 04 58 36 3d 78 e0 bd 3c
       0.029056922 0.021907793 0.044517532 0.023178324
0002f0 25 b0 b6 bb 0b ec 58 3d 16 4c 43 bb c3 90 75 bc
       -0.0055751973 0.052959483 -0.002979999 -0.014988127

gumbel_social_transformer.node_encoder_layers.0.self_attn.out_proj.weight f4 [64, 64]
000000 d7 bf 40 3c 2e 1f 7c 3c 4d 0f 84 bd c4 a9 9e 3d
       0.011764488 0.015388293 -0.06448231 0.07747224
000010 b3 db 92 bb 3f 5e 3f 3d d4 65 7f 3a 5c ef 2b 3d
       -0.0044817566 0.04672074 0.00097426516 0.041976318
000020 07 06 0c 3c 8d ff 19 3d 93 71 fc 3d 2a 3e df bd
       0.008546359 0.037597228 0.1232635 -0.10900529
000030 9e e0 bb 3d 70 7b f0 bd ab cf 10 3d fc c4 22 3d
       0.09173702 -0.11742294 0.035354298 0.03973864
000040 25 c5 b3 3d 68 0f 1e 3e 6b 6d e3 bd fc c9 b3 bc
       0.08777837 0.15435565 -0.11104854 -0.0219469
000050 90 2d bb b8 65 6a 99 3c a8 8a 96 ba 81 c8 19 3d
       -8.9253415e-05 0.01872749 -0.0011485415 0.03754473
000060 7f 3f b1 bd a6 ad 33 3d e1 56 15 3d 27 8d 15 bd
       -0.08654689 0.043866776 0.036459807 -0.036511566
000070 a6 db e6 3c 38 a5 87 bc 34 df 8a 3d 60 1c 5d bc
       0.028180908 -0.016558275 0.06780854 -0.013495535
000080 d9 c5 9e 3d f7 fa bb 3c 32 60 cb bc e8 39 8a 3d
       0.0775258 0.022946818 -0.024826143 0.06749326
000090 ce 97 79 3c d4 3f a8 bd 3d 3d 6c bd 6b c7 56 3d
       0.015233947 -0.08215299 -0.05767559 0.052436274
0000a0 63 90 c2 3d 0e 72 1c 3d 92 ed 2b 3d 6e 2f c1 bd
       0.09500196 0.03819471 0.04197461 -0.094328746
0000b0 0c 48 6d bd 18 4f 8e 3c 29 c8 28 bd 79 85 4b bd
       -0.057930037 0.0173717 -0.041206513 -0.049687836
0000c0 33 78 1f be f8 b0 ee 3d 44 22 4c 3d 59 a6 17 b9
       -0.15573196 0.11654848 0.049837366 -0.00014462452
0000d0 f1 91 1f be 2c f9 2e be ca fc 25 3e 5f 35 f2 3d
       -0.15583016 -0.17087239 0.16209713 0.11826586
0000e0 11 cd 7d bc 96 ef bc bd 9c c8 17 bd d3 22 22 3d
       -0.015490786 -0.09225385 -0.03705655 0.039583992
0000f0 8a 7c c9 bc 91 a6 53 bb dd 84 d0 bd 31 81 ba 3d
       -0.024595518 -0.0032295326 -0.10181592 0.091066726
000100 ed aa df bc 73 d4 63 bc 6a 3b 01 3e 36 e3 09 3e
       -0.027303183 -0.013905632 0.12620321 0.1346558
000110 ba 32 96 bd 50 d1 ac bc 50 cc 7f 3b a8 fb e0 bc
       -0.07333894 -0.021095902 0.0039031692 -0.027463749
000120 38 06 b7 3d 93 23 df bd e7 3d 34 3d 84 1a a9 bd
       0.08936733 -0.10895457 0.044004347 -0.082570106
000130 3a a1 ea 3c 00 c6 0b bc 75 05 dd 3d 31 4e 35 bd
       0.028641332 -0.008531094 0.107920565 -0.044264022
000140 d7 14 91 bc b1 aa 8d bd 68 4d bb bc f0 79 0c be
       -0.017710133 -0.069173224 -0.022864059 -0.1371839
000150 b9 f0 51 3d 5f be 7a 3d 09 7d d5 bc f8 cc 49 3d
       0.05125496 0.06121671 -0.026060598 0.04926774
000160 42 fa f5 3b 0d 09 6f bd 8c 85 73 3d 07 10 3b bd
       0.0075066397 -0.05835824 0.059453532 -0.04566958
000170 3e 90 7a bd de 14 e1 3c 19 c3 e3 3d af 94 2c 3e
       -0.061172716 0.02747577 0.11121196 0.16853593
000180 7c ef 7f 3a 7a bb 3a 3d 5c db d4 bd cb 0c 50 3b
       0.0009763164 0.045588948 -0.10393402 0.0031745906
000190 8b b2 5f 3d f0 66 4a bd 13 c7 79 3d 69 bd 6c 3c
       0.05461363 -0.049414575 0.060980868 0.014449456
0001a0 57 dd 5d 3e 14 00 3e 3d 57 44 0b bd 36 66 52 bd
       0.21666466 0.046386793 -0.03400072 -0.051367007
0001b0 ce 29 5f bd 20 6a df 3d a5 88 61 3c 0a 96 01 3d
       -0.054483227 0.109089136 0.013765489 0.03163723
0001c0 99 e0 ef 3b 7d e6 41 bd 09 26 0f 3e 7f 62 30 be
       0.0073204753 -0.04733895 0.13979353 -0.17225073
0001d0 54 db 4d bd a1 97 5a bd 2c ea a2 bd 4f 2c 21 be
       -0.050257996 -0.05336726 -0.07954821 -0.15739559
0001e0 c2 da 12 3e d4 1e 0d 3d e2 0f 82 3d 61 27 04 bd
       0.14341262 0.034453228 0.06350686 -0.032264117
0001f0 0e 47 0c bd 6b 74 f8 3d ac 64 85 3d c0 67 61 bb
       -0.03424745 0.1213158 0.06513342 -0.0034394115
000200 71 e9 2a 3d e0 46 c4 bd 28 68 ad bb e3 73 06 3d
       0.041726533 -0.09583831 -0.0052919574 0.032825362
000210 4b 3e 8c 3c 47 b0 8d bd 15 4b e0 3c e2 10 a5 bc
       0.017119547 -0.06918388 0.027379552 -0.020149652
000220 fe f5 23 bd 5a 29 75 3c 71 17 3f bd 4e a7 fd 3d
       -0.04002952 0.014963472 -0.046653215 0.123854265
000230 22 71 3b bd 1f 90 9f 3c a4 9f 6f bc 2f 5b bb bb
       -0.04576219 0.019477902 -0.014625464 -0.005717657
000240 93 65 28 bd 25 81 e6 3d 39 29 45 be ff b1 ae 3d
       -0.041112494 0.11255101 -0.19254006 0.08530044
000250 87 30 ff bc 05 24 bc 3c 3a 0d e3 3b 57 d9 ce bb
       -0.03115107 0.022966394 0.006929067 -0.00631253
000260 c5 c2 94 3d 72 bb e1 bd 40 57 e2 bc dc c5 e3 bb
       0.07263712 -0.110220805 -0.027629495 -0.006951077
000270 9d 75 a4 3c b6 2b 0d bc a5 f2 8a 3d 8c fe 94 bc
       0.020075614 -0.0086163785 0.06784562 -0.018187784
000280 cd 75 03 bd f7 99 05 bd 76 a2 c9 3d e4 68 2a 3e
       -0.032094765 -0.032617535 0.0984544 0.16641575
000290 8a 79 a5 3c d0 e5 bb bd d8 65 92 3d ae 86 f7 bc
       0.020199556 -0.09174693 0.071483314 -0.030215587
0002a0 45 f6 7e 3d 81 2e 81 3c e7 35 be bc 31 f2 0b 3b
       0.06224658 0.015769245 -0.023219062 0.0021354074
0002b0 52 72 93 3d 0d 9f ea 3a 60 a6 54 3d e9 16 94 3d
       0.07199539 0.0017900184 0.05191648 0.07230932
0002c0 97 a3 cd 3d fd 55 2f bd 2c 08 03 bd e8 36 30 bd
       0.10040968 -0.042806614 -0.031990215 -0.043021113
0002d0 8e df 1a 3e 79 68 5d bd 8c 39 d8 3d 31 00 7a 3c
       0.15124342 -0.05405471 0.10557851 0.015258835
0002e0 70 cd 36 3e 9d f7 db 3c 46 54 d5 3d 23 ae c8 3d
       0.17851806 0.02685147 0.104164645 0.09798839
0002f0 fa a7 39 bc c5 ff 6f bc 99 5e cb 3b d6 92 70 bd
       -0.011331553 -0.014648383 0.0062063453 -0.058733784
000300 df dc 98 bd b1 7d e3 3a 14 2c c5 3c 1b 15 ac 3c
       -0.07464003 0.0017356185 0.02406887 0.021006158
000310 74 a0 8b bd 43 a2 71 3d fe b7 90 bb da 97 9a 3d
       -0.068177134 0.058992635 -0.004416465 0.07548495
000320 89 c6 c1 3c 34 45 3e 3c ca 22 de bd c4 d3 62 3d
       0.02365424 0.011613179 -0.10846479 0.055377737
000330 a4 35 04 be fa d7 63 3d 24 9f b6 3d 96 c7 c0 bd
       -0.12911087 0.055625893 0.089170724 -0.09413068
000340 f8 61 d1 bd da bc 16 3d 64 17 d7 3d 31 6d f1 bd
       -0.10223764 0.036801197 0.10502508 -0.11788405
000350 11 67 25 bc 98 3d 85 bc 36 97 ee 3c 0f 32 8e bc
       -0.010095374 -0.016264722 0.029124837 -0.017357854
000360 1d 28 dc bd d1 e6 b2 bd 18 8f 59 bb 3e 49 cc bb
       -0.107498385 -0.08735431 -0.0033196863 -0.006234317
000370 0c 07 c0 bd 53 bd 52 bd 96 94 6a bd d3 45 ad 3d
       -0.09376344 -0.051450085 -0.05727061 0.084605835
000380 49 30 3e bd 6c a7 83 3c 56 c4 38 3e 9a 4f 5c 3d
       -0.046432767 0.016071044 0.18043646 0.05378685
000390 e6 02 4d bd d2 ef fc bd 7e db 10 3d d6 74 5f 3d
       -0.050051592 -0.123504296 0.035365574 0.054554783
0003a0 78 0e 34 3d 15 1b 63 bc eb 18 88 3d 67 c1 18 3d
       0.04395911 -0.013861437 0.06645378 0.037293818
0003b0 8b e7 2c 3c f2 84 01 3e 2d 47 0a 3e b5 2d 85 bc
       0.010553251 0.12648371 0.13503714 -0.016257146
0003c0 72 f7 80 bd e4 b6 9b bd 70 ef f8 3c 7e 62 45 3c
       -0.062971964 -0.07603243 0.03038761 0.012047408
0003d0 3c 78 e5 bd ef 39 e0 3d a4 73 50 bd b4 69 02 be
       -0.112045735 0.1094855 -0.050891533 -0.12735635
0003e0 4a 3d f9 3d 5d 2a 88 bd 40 5d c9 bb cb c0 8a 3b
       0.12169893 -0.06648705 -0.0061451495 0.0042344085
0003f0 51 16 12 3d e8 43 97 3d 02 90 96 bd 41 4d cf 3d
       0.035665814 0.07385999 -0.07351686 0.10122157

gumbel_social_transformer.node_encoder_layers.0.self_attn.out_proj.bias f4 [64]
000000 c8 b8 2f 3d f5 e9 15 3d c1 11 d1 bb 9e 33 2f 3d
       0.04290083 0.036600072 -0.0063802903 0.042773835
000010 d4 b7 20 bd 59 66 c6 bc a6 9f 03 3c 08 ef c4 3a
       -0.039237812 -0.024218725 0.008033669 0.001502485
000020 86 a7 0b bd 63 6f 46 bc 40 b2 33 bc 98 d5 8f bc
       -0.03409531 -0.012111518 -0.010967791 -0.017557904
000030 73 a1 3a bb ac 6b 7e 3d 71 cc b3 3c 72 d2 68 bb
       -0.002847758 0.062114403 0.021948071 -0.0035525826
000040 12 13 81 bc b3 d6 5d 3c 5d 6f 1c b9 a1 c0 81 3b
       -0.015756164 0.013539958 -0.00014918805 0.0039597307
000050 11 79 0d 3c 73 f5 33 3b 72 83 44 3c 79 6e 97 bb
       0.0086348215 0.0027459532 0.01199423 -0.0046213237
000060 cd e2 0a 3c 30 00 6b 3d 81 ed e7 3b 95 54 5a bc
       0.008476925 0.057373226 0.007077873 -0.01332583
000070 2f 6f 85 bc 27 05 16 bd 85 10 e1 ba 5b 0e 9a bb
       -0.016288368 -0.036626007 -0.0017171061 -0.0047014183
000080 40 d1 67 3d a5 55 b4 3c e2 41 51 bc 2a 97 30 bc
       0.05659604 0.022013495 -0.012772055 -0.010778228
000090 6b 7c 86 bd 05 83 29 bc e7 e4 71 3d 8d e5 1a bc
       -0.065666996 -0.010346179 0.05905619 -0.009454143
0000a0 7d 50 03 bd bf 99 5b 3c da 15 47 3c 4d 86 4a bd
       -0.03205918 0.013403355 0.012151206 -0.049444485
0000b0 d3 df df 3d 47 cd 87 bc 9b cc 9c 3c e8 af 96 3c
       0.10931363 -0.016577376 0.019140532 0.018394426
0000c0 12 a1 a3 3b ba 85 96 3c 0b 91 46 bb 3b 34 53 3c
       0.0049935663 0.018374313 -0.0030298855 0.012890871
0000d0 9e 11 2b bc 5a 1e 77 bd 3c 39 69 bb 8a 14 11 bc
       -0.010441212 -0.06033168 -0.0035587093 -0.008854995
0000e0 47 60 32 3d 00 d3 ba bc 8c 59 0b bc 3a d1 e6 bb
       0.04354885 -0.02280569 -0.008505236 -0.0070439847
0000f0 79 b5 bf bc f7 2c 43 bc 66 0f 18 bd 5f d3 a9 bc
       -0.023401963 -0.011912576 -0.03712406 -0.020730672

gumbel_social_transformer.node_encoder_layers.0.norm_node.weight f4 [64]
000000 49 e1 31 3f f2 b8 4b 3f b2 c3 52 3f 63 95 27 3f
       0.6948438 0.7957908 0.8232986 0.6546232
000010 6f 44 31 3f 3c 4b 38 3f 68 ca 99 3f 3b 7e a1 3f
       0.69245046 0.719898 1.2014894 1.2616647
000020 4f 2e 65 3f 7b b5 8f 3f 3a 71 99 3f aa 5d 87 3f
       0.89523786 1.1227258 1.1987679 1.0575459
000030 b5 79 2f 3f 51 55 25 3f 78 d3 38 3f 9d ea 8f 3f
       0.68545085 0.6458331 0.72197676 1.1243473
000040 d0 71 86 3f aa 16 80 3f cd 07 2d 3f dc 65 31 3f
       1.0503483 1.0006917 0.6759003 0.6929605
000050 33 e4 80 3f b7 c8 88 3f a1 31 a6 3f 04 76 8a 3f
       1.0069641 1.0686253 1.2983896 1.0817266
000060 32 a8 52 3f 59 bb 52 3f b4 f3 50 3f b1 e0 56 3f
       0.82287896 0.8231712 0.8162186 0.839366
000070 1f 4a 9c 3f 52 33 56 3f 03 bb 4b 3f 51 5a 5a 3f
       1.221012 0.8367206 0.7958223 0.8529406
000080 28 72 39 3f 42 74 47 3f a1 fb 74 3f 19 81 59 3f
       0.72439814 0.7791177 0.95696455 0.8496261
000090 17 a8 2c 3f c0 2d 7c 3f 84 1f 27 3f 2a 26 6a 3f
       0.67443985 0.9850731 0.65282464 0.91464484
0000a0 4a b4 58 3f c4 66 b2 3f 27 57 85 3f 3d bd 5f 3f
       0.846501 1.3937612 1.0417222 0.8739813
0000b0 08 e6 3a 3f e7 fe 94 3f 4e 6d 98 3f a8 5d 83 3f
       0.7300725 1.164029 1.1908357 1.0262957
0000c0 da c8 86 3f a3 6c 66 3f 91 02 94 3f 14 5a 3b 3f
       1.0530045 0.90009516 1.1563283 0.73184323
0000d0 88 b7 29 3f 2c 98 30 3f 72 53 59 3f a7 85 51 3f
       0.6629567 0.68982196 0.8489295 0.8184456
0000e0 db f4 4c 3f f6 e3 48 3f 6d b3 87 3f e0 16 60 3f
       0.8006112 0.7847284 1.0601631 0.87534904
0000f0 45 b2 37 3f 39 30 91 3f c0 d8 4b 3f 7e 3b 47 3f
       0.7175639 1.1342841 0.7962761 0.7782515

gumbel_social_transformer.node_encoder_layers.0.norm_node.bias f4 [64]
000000 3d 51 c3 3e 7e c3 b0 3b 58 32 21 3e 17 dc af 3e
       0.38147917 0.0053943982 0.15741861 0.34347603
000010 4b 97 8a 3e aa 73 af 3d 39 f3 78 bd 55 e0 31 3d
       0.27068552 0.08566983 -0.06077883 0.04342683
000020 55 ec 8d be 8f b1 f6 3d 0e 6e 8d bc fd 1e 3a be
       -0.2771937 0.12045585 -0.017264392 -0.18175884
000030 36 74 c6 be da a7 c4 3e 9f 0e b0 be 8b 6a f8 bd
       -0.38760537 0.3840931 -0.34386155 -0.121296965
000040 bd 94 2b be 4c 7e 22 be c2 fd 92 be 0f eb 21 3e
       -0.16755958 -0.15868491 -0.28709227 0.15812324
000050 84 f6 2f 3e 42 be 14 3e 1f 54 13 bc 7b 03 1f be
       0.17183882 0.14525703 -0.008992224 -0.15528671
000060 b1 59 14 3d e6 b8 40 3e 1d a0 74 be e2 7b 58 be
       0.03621835 0.18820533 -0.23889203 -0.21141008
000070 ba 4f 98 3d 53 57 a6 be 54 3d 8f be 1b d1 57 3e
       0.07437082 -0.32488498 -0.27976477 0.21075861
000080 93 bd a2 3e 4f 6e 8e 3e 3b 59 01 3e fe 85 7a 3e
       0.3178526 0.27818534 0.12631695 0.24465176
000090 06 27 bd be d1 bd 07 be fa fd d8 3e 02 1b 82 bd
       -0.36943835 -0.13256003 0.4238127 -0.063528076
0000a0 c5 da 8c be dd 39 23 3d 16 39 29 be 55 ae 78 be
       -0.27510658 0.039850105 -0.16525683 -0.24285252
0000b0 03 ed 8c 3e a8 9b 8a bc 59 90 77 bc 63 d2 52 3e
       0.27524576 -0.016919926 -0.015110099 0.20588069
0000c0 9a e4 7f bd cd 9a 8b 3e 90 bd 9f bd 27 a7 5e 3e
       -0.06247387 0.2726654 -0.07799828 0.21743451
0000d0 9c 7c b1 3e aa b1 a0 be f5 df 8d be ba 4f 8b 3e
       0.34665382 -0.31385547 -0.27709928 0.27209264
0000e0 86 59 b8 3e a7 07 11 be d8 b1 1f bc 3a 58 3a 3e
       0.360058 -0.14163075 -0.009746991 0.18197718
0000f0 53 eb 94 be 58 f0 ec 3d 7e 25 33 bd 6e 4f 9c be
       -0.29085788 0.115692794 -0.043736927 -0.3052935

gumbel_social_transformer.node_encoder_layers.0.norm1_node.weight f4 [64]
000000 19 7d 5f 3f dd d2 2b 3f a0 c9 41 3f 92 7f 3c 3f
       0.8730026 0.67118627 0.7569828 0.73632157
000010 4e cc 71 3f 6c c7 87 3f 38 68 61 3f 84 6e 44 3f
       0.9445237 1.0607734 0.8804965 0.76731133
000020 5d eb 83 3f 30 2e 33 3f 5f db 64 3f c4 02 93 3f
       1.0306202 0.6999235 0.89397234 1.1485219
000030 66 15 86 3f c1 4c 5a 3f a0 8c 27 3f e6 a3 66 3f
       1.047528 0.8527337 0.6544895 0.9009384
000040 4b ca 3e 3f 19 11 55 3f f1 cf 37 3f 7c 93 3f 3f
       0.74527425 0.83229214 0.7180167 0.7483442
000050 60 94 50 3f 7b 35 59 3f c6 df 7f 3f a7 e7 7b 3f
       0.814764 0.8484723 0.99950826 0.9840035
000060 f2 16 6f 3f c2 7b 51 3f 2e 25 58 3f 34 e3 49 3f
       0.93394387 0.81829464 0.8443173 0.7886231
000070 04 57 6b 3f 30 a4 58 3f da 11 5f 3f ae a0 61 3f
       0.9192965 0.8462553 0.87136614 0.881358
000080 c7 c5 5d 3f 1e 41 73 3f d4 af 5a 3f 9f 17 74 3f
       0.8662991 0.95021236 0.8542454 0.9534854
000090 1f e1 85 3f 0c 90 52 3f bf aa 56 3f 32 3c 20 3f
       1.0459327 0.8225105 0.8385429 0.6259185
0000a0 7d b6 89 3f 78 39 76 3f 50 04 6f 3f e8 11 4a 3f
       1.0758816 0.9618144 0.93365955 0.7893357
0000b0 38 e7 63 3f 6c 53 60 3f 85 f6 83 3f 42 58 44 3f
       0.89024687 0.8762729 1.0309607 0.7669717
0000c0 5c 82 5d 3f 68 47 81 3f 02 2b 6d 3f 21 e4 15 3f
       0.8652704 1.0099916 0.9264375 0.5855122
0000d0 b9 ad 25 3f 74 d9 82 3f a7 82 88 3f e8 d5 5d 3f
       0.64718205 1.0222611 1.0664872 0.8665452
0000e0 f2 fa 6e 3f de 74 3e 3f f4 00 30 3f f3 05 5c 3f
       0.9335166 0.74397075 0.68751454 0.8594658
0000f0 81 2d 5a 3f f9 a8 64 3f 22 fd 49 3f a5 dc 66 3f
       0.85225683 0.8932033 0.78901875 0.90180427

gumbel_social_transformer.node_encoder_layers.0.norm1_node.bias f4 [64]
000000 67 43 21 3e f3 44 54 3c 7f 10 4d bd cd e2 ae 3d
       0.15748368 0.012955892 -0.05006456 0.085393526
000010 f6 06 0d bd 33 5b 2c be f3 df 04 3d f8 47 b9 bb
       -0.034430467 -0.16831665 0.032440137 -0.0056543313
000020 03 03 b3 bd bf f2 26 3e cc 05 96 3d 49 cc 00 bd
       -0.08740809 0.16303538 0.073253244 -0.03144482
000030 4a e2 18 3b b3 b9 1e 3e af 5d 2a be a0 c9 1a 3d
       0.0023328238 0.15500526 -0.166373 0.03778994
000040 6c f2 1a be 67 b2 42 be 97 f6 72 3d e1 10 3a bd
       -0.15131539 -0.19013368 0.059317198 -0.045426253
000050 45 58 df 3d 52 f4 49 bc 94 b9 68 3d 30 1e 6c bc
       0.10905508 -0.012326317 0.056817606 -0.014411494
000060 40 f3 87 bd c1 bb 19 bd 84 cc f9 bd 54 ce 45 3c
       -0.06638193 -0.03753257 -0.121972114 0.012073118
000070 46 ef 55 bd 69 c4 06 be 72 35 15 be 9c 46 45 3e
       -0.052230142 -0.13160862 -0.14571169 0.19265217
000080 b1 b7 41 3e e2 ad be 3d 99 80 ad bd 5a 77 10 3e
       0.18917729 0.09310509 -0.08471794 0.14108029
000090 9b ee 39 3c 6a 85 6e bd 32 cd be 3d 93 93 2a 3e
       0.011348392 -0.058232702 0.09316482 0.16657858
0000a0 67 e2 b6 bc e0 fe d8 3a bc 73 fd bc ea 11 40 be
       -0.022324754 0.0016555451 -0.030938976 -0.18756834
0000b0 bf 22 48 3e 61 bd ba 3d df 58 d9 3d 91 17 75 3d
       0.19544505 0.091181524 0.10612654 0.059836928
0000c0 bf a2 90 bd dd d9 80 3d 30 40 12 3d 9e 02 84 ba
       -0.07062291 0.06291554 0.035705745 -0.0010071581
0000d0 a0 bf 96 3d dd 90 4b bd da 70 2e bc b6 ec 7b 3d
       0.07360768 -0.0496987 -0.010647023 0.061505042
0000e0 b7 2b 85 3d 85 88 34 3d d8 77 45 be ad 93 dc 3c
       0.065024786 0.044075508 -0.19283998 0.026925886
0000f0 00 20 47 bc 3a 05 95 bc e6 33 bc 3d cc cf 05 be
       -0.0121536255 -0.018190969 0.09189586 -0.1306755

gumbel_social_transformer.node_encoder_layers.0.linear1.weight f4 [128, 64]
000000 38 83 94 3d ca ff 81 3d ac 58 6b bd 13 22 bf 3d
       0.072515905 0.06347616 -0.05745761 0.09332671
000010 22 80 b7 3d 53 4e 45 3d e4 05 f8 bc 33 2c c7 3e
       0.08959986 0.0481704 -0.030276246 0.3890091
000020 c3 a4 84 bd b7 59 f9 3e ad 47 75 be d5 1c 39 bd
       -0.06476738 0.4870126 -0.23953123 -0.045193512
000030 e3 20 9c be b6 f5 79 3e 23 59 ef bd a6 5a bf 3d
       -0.3049384 0.24410138 -0.11686923 0.09343462
000040 a5 55 78 be 2d 2d 5b be e6 03 57 be 56 5d d5 3d
       -0.24251421 -0.21403952 -0.20997581 0.10418193
000050 88 d3 6b 3e b8 14 1a be e3 f8 ae bd c7 97 37 3d
       0.23029912 -0.15046966 -0.08543565 0.04482248
000060 93 fb 65 3e e4 9d 57 3c 21 e7 94 bd 55 fb d0 3d
       0.22459249 0.013160203 -0.07270647 0.10204188
000070 6e 35 01 bd 49 9f de bd 4a 1c c8 bc 4e 35 0a 3e
       -0.031545095 -0.10870225 -0.024427552 0.13496897
000080 0a 3e 0a ba 1a c2 31 bc 79 c1 7c 3e bc 9d be bc
       -0.0005273527 -0.0108495 0.24683179 -0.023268573
000090 fe e4 56 be 47 45 fe bc bc 96 6c 38 4e b8 3e be
       -0.20985791 -0.031038893 5.6407167e-05 -0.18624994
0000a0 a4 4c f9 bc c8 9b 37 bd 1c 48 dc bd 5c b4 58 be
       -0.030432053 -0.0448263 -0.10755941 -0.21162552
0000b0 1f bc 43 3e 45 9c d4 bd bd 6a 5e be 96 46 95 3d
       0.19114731 -0.103813685 -0.21720405 0.07288854
0000c0 55 4f 42 be da a5 4a 3d d1 24 d7 be a0 a7 af 3b
       -0.18975575 0.049474575 -0.42020276 0.0053605586
0000d0 2a 85 89 bd d0 e9 07 bd 5a 6b 8c be b5 9b 5c 3d
       -0.06714852 -0.033181965 -0.27425653 0.05385943
0000e0 93 04 dd 3c 61 51 ab be 05 dd 02 3d 28 53 f9 3d
       0.02697972 -0.33460525 0.031949062 0.12174064
0000f0 e1 a5 a9 bc 9b 34 f1 3e 27 ee fe bd 74 14 38 be
       -0.02070898 0.47110447 -0.12447768 -0.17976552
000100 a9 27 15 3e 20 01 b7 3c 99 4b 48 3e fe ba 45 bd
       0.1456591 0.022339404 0.19560088 -0.048274033
000110 a8 2e f1 3c 45 31 17 3c 9f 87 61 3e ac bb a7 3d
       0.029441193 0.009228055 0.22024392 0.081900924
000120 0e ed 27 3c a5 5b f6 3d a4 f4 a6 bb 0d fb af 3d
       0.010249389 0.120291986 -0.0050950814 0.08592806
000130 9c 12 9f bd d9 da 31 3d c2 bd 6a be d5 c5 89 3b
       -0.07767221 0.0434216 -0.2292395 0.0042044916
000140 a2 22 31 bd 4e f3 55 bd 11 a0 d4 3d ba 98 29 3d
       -0.04324592 -0.052233987 0.10382093 0.041405417
000150 72 60 30 3e e2 eb 95 3a 1d 97 ac be 36 14 99 bd
       0.17224291 0.0011438096 -0.3370904 -0.07474558
000160 51 f3 7c 3c bc 4d 7d 3d 85 52 03 be 12 a3 9b 3c
       0.0154388705 0.06184171 -0.12824447 0.018998656
000170 39 01 2c 3e 30 cb 59 be 7d 57 fe 3c 28 74 dd bb
       0.16797341 -0.21268916 0.031047577 -0.0067582317
000180 63 cb e0 3d dd be 7b 3e e8 db 11 be 27 73 2a 3e
       0.10976293 0.24584527 -0.14244044 0.1664549
000190 a2 c4 88 be 92 ca 0b 3d 8c 95 03 3e 64 16 f2 bc
       -0.2671252 0.034128733 0.12850016 -0.029551692
0001a0 08 ff 35 be 19 34 6b be 75 e6 f6 bd 90 4e 54 be
       -0.17773068 -0.22969092 -0.12055675 -0.20733094
0001b0 78 56 73 3d 92 d3 04 3e cf 8e a5 3d c9 75 40 bd
       0.059408635 0.12971333 0.08083879 -0.04698733
0001c0 bb 71 b3 bd 71 fc 96 3a 86 e9 59 bd a9 ca 11 be
       -0.08761927 0.0011519325 -0.05320122 -0.14237465
0001d0 61 8c 22 bd 25 63 93 3c 6a 26 fb bd 33 a2 06 3e
       -0.039684657 0.017991612 -0.12263186 0.13147812
0001e0 5c 8a 8e 3d b5 85 f7 bd c8 d0 04 3d 30 0f c1 bd
       0.06959984 -0.120860495 0.03242567 -0.09426725
0001f0 5c b2 a3 bd b5 6b 85 bd 5a 53 21 3d 4f 57 8c 3c
       -0.07993004 -0.06514684 0.03938613 0.017131476
000200 e9 fe 2b 3e 06 f7 1a bd e8 62 0d 3e 7d 82 40 3e
       0.1679646 -0.037833236 0.13807261 0.18799777
000210 01 ab 67 3c 39 27 3c bd 50 5e 45 3e 69 c8 99 3d
       0.014139892 -0.045935843 0.19274259 0.07508928
000220 f5 f2 19 be be a3 8c 3c 26 ed 90 39 6a 94 cb 3d
       -0.15034087 0.017167922 0.0002764251 0.09940417
000230 05 b0 d6 bd 28 07 0d 3e 4e ba 4c 3c 9c 21 aa bc
       -0.10482792 0.13772261 0.01249559 -0.02076798
000240 d7 22 e9 bd 12 cd 3b be 30 eb 37 be 22 80 f3 39
       -0.11383598 -0.18339947 -0.1796081 0.00046444038
000250 14 e6 45 3d 4d 13 81 3b da 8f 5a be 99 39 c0 3c
       0.048315123 0.0039390684 -0.21343938 0.023464965
000260 92 5b c8 bc 2a 70 9a bb 41 b1 47 bd d5 6f c9 bd
       -0.024457727 -0.004713078 -0.048753027 -0.098357834
000270 2c f0 81 bc cf 16 ac bd 9e de fe bc c5 b3 6e 3e
       -0.015861593 -0.08402788 -0.031112012 0.23310764
000280 0a 60 54 3d 77 83 d2 3d a8 4e d2 bd 48 84 19 3d
       0.051849402 0.10278981 -0.10268909 0.03747967
000290 57 2d b7 bd ac a0 46 be 9a ed 02 3d e8 10 f0 bd
       -0.08944195 -0.19397229 0.031964876 -0.117219746
0002a0 eb c4 3f be 25 3b 4e be 64 8d 77 bd a4 96 cd bd
       -0.18727462 -0.2013975 -0.060437575 -0.10038498
0002b0 8e 9f 1b 3e ec 00 11 3e 33 76 76 3c 56 ba 09 bd
       0.15197584 0.14160508 0.015042829 -0.03362497
0002c0 5e 4c a9 3d 4f 9c 7a 3b 79 87 ae bd de 13 41 3d
       0.08266519 0.003824014 -0.08521933 0.047138087
0002d0 c6 08 b7 ba e9 34 9d bd ee af ea bd 94 d9 2f 3d
       -0.0013964407 -0.076761074 -0.11459337 0.042932108
0002e0 65 99 b2 3d 89 e0 20 be 64 e9 28 3c 2d a2 ae bd
       0.08720664 -0.15710653 0.010309551 -0.08527026
0002f0 f7 2b 53 3c 5e 35 4e 3c 41 e3 57 bc 8a 46 a5 3c
       0.0128889 0.012585966 -0.01317674 0.020175237
000300 e6 11 34 3d 68 59 1d 3e 1b e6 14 3d 92 5b bd bc
       0.04396238 0.15366137 0.03635226 -0.023114953
000310 a3 e8 45 3d 19 f8 48 bd 92 22 a6 3d 32 28 79 3e
       0.048317563 -0.04906473 0.081120625 0.2433174
000320 b8 9c 38 3d f6 87 5b 3e 3f 1c 53 be 89 5b fb bc
       0.045071334 0.21438584 -0.20616244 -0.030683296
000330 c7 96 3e be 6a b3 20 3d ec 15 a8 3b 69 42 92 bc
       -0.18612204 0.039233603 0.0051295664 -0.017853932
000340 a6 96 18 be 60 40 76 be a4 08 31 be 16 e5 d8 3d
       -0.14901218 -0.24047995 -0.17288452 0.1059057
000350 c9 09 e6 3d ad 21 5e bd 0f 3c 33 be b8 0f 96 3d
       0.11232335 -0.054231334 -0.1750338 0.07327217
000360 c0 37 6c bc 90 ff 27 3d 9c c4 dc bd bd 2a bc bd
       -0.014417589 0.041015208 -0.10779688 -0.09187839
000370 b4 54 42 3d eb 58 4a 3c ec fb cd 3d f7 97 41 3d
       0.04744406 0.012350301 0.10057816 0.047264066
000380 6a 4b d0 3c 7e 6a 46 3e ec be 18 bd 4f 5f 75 bc
       0.025426585 0.19376561 -0.037291452 -0.014976337
000390 c6 38 29 be 1f 39 8d 3b 26 e9 f9 bb b8 7b ee bd
       -0.16525564 0.004309788 -0.0076266704 -0.11644691
0003a0 74 33 c4 3b bd 39 4e be c4 f9 13 bc ed 51 12 be
       0.005987579 -0.20139213 -0.009031717 -0.14289065
0003b0 c4 2a 16 3e 58 d0 bd bd 71 bd 09 be 19 39 70 3e
       0.14664751 -0.09268254 -0.13451172 0.23459281
0003c0 8f 9f 14 be df cb b1 3c c1 f3 b4 be 15 0b 74 3d
       -0.14513992 0.021703659 -0.3534222 0.05958088
0003d0 08 eb e5 3d 2a a2 23 3d fa d8 bf bd c5 f6 38 3e
       0.11226469 0.039949574 -0.09367557 0.18062885
0003e0 00 2c ea 3d 99 00 0a be f3 c7 a5 bd 87 e1 92 bc
       0.114341736 -0.1347679 -0.08094778 -0.017929805
0003f0 34 8b 45 3d 06 8c 40 3e e7 52 c4 bd 19 17 3d bd
       0.048228458 0.18803415 -0.09586125 -0.046164606

gumbel_social_transformer.node_encoder_layers.0.linear1.bias f4 [128]
000000 de f7 9a 3a fe 7f 22 be 0f 84 36 bd d0 83 8a bd
       0.0011823138 -0.15869138 -0.044559535 -0.067634225
000010 63 34 04 bd 5c ba c5 3d 28 5c f5 bd 96 40 60 3c
       -0.032276522 0.09654686 -0.11980468 0.0136872735
000020 91 99 0d be ce e7 8d 3c b3 38 40 3d a4 51 c0 3d
       -0.13828112 0.017322447 0.046929073 0.09390572
000030 cb 56 96 bd ba 39 70 bc 0a 6c d3 bd fd 72 6d bd
       -0.07340773 -0.014662201 -0.10323341 -0.05797099
000040 f2 65 17 be af 7b 8e bd 46 89 de bd 17 7b 1d 3e
       -0.14784983 -0.069571845 -0.108660266 0.15378986
000050 76 89 a7 3d 0f b1 07 3d b4 7d 1f 3d 2c aa 13 be
       0.081805155 0.03312784 0.03893824 -0.14420384
000060 19 0a 5e bd 48 18 2b 3e b1 1c a8 bd 72 7c 4d bd
       -0.05420885 0.16708481 -0.082085975 -0.05016751
000070 71 d8 d2 3d c2 15 17 3d 6f 47 11 3d a7 97 bc bd
       0.10295189 0.036885984 0.035468515 -0.09208613
000080 4d 38 bc bd 88 57 18 be 61 1b d7 3d 6f 13 fa bd
       -0.09190426 -0.1487714 0.10503269 -0.12210738
000090 4a ec 21 3d d4 4c 04 be 21 5f e9 bc 5a a0 cd bd
       0.039531983 -0.12919933 -0.028487744 -0.1004035
0000a0 2d 16 92 bd 37 6c 04 3e e8 ee 7c bc a8 81 bc bc
       -0.07133136 0.12931906 -0.015437819 -0.023011044
0000b0 92 dc cf 3c 55 86 ed 3d 23 c8 89 3d f8 52 79 bd
       0.02537373 0.115978874 0.06727626 -0.06087014
0000c0 3c d1 1f 3c a1 59 e5 bd ef d1 3c be db 62 6a bd
       0.009754475 -0.11198736 -0.18439458 -0.057223182
0000d0 2b 91 99 bd 2e e0 15 be 1a 3e bd bd db 24 58 bd
       -0.07498392 -0.14636299 -0.092403606 -0.052769523
0000e0 8f f3 d6 3a bb 4b 25 bd 1b 45 13 be 22 9c 1d ba
       0.001639949 -0.040355425 -0.1438183 -0.00060123403
0000f0 57 c5 29 bd dc 2f 93 3d eb 82 43 3b 52 58 05 bd
       -0.041447964 0.07186863 0.0029832672 -0.032554932
000100 7f b8 c8 3c 96 33 89 3d 7b 43 77 3d 3a 1c 17 3d
       0.024502037 0.06699292 0.06036709 0.036892153
000110 f8 7e e0 bd 08 e7 e1 3d b5 d6 15 3a 99 2c 21 be
       -0.10961717 0.11030394 0.0005715893 -0.15739669
000120 68 70 e8 bc 46 dc 87 bd 18 a7 ef bd 11 c2 30 3d
       -0.028373912 -0.06633811 -0.117017925 0.043153826
000130 8d 33 57 3e 41 cc 47 3c 12 ce a2 3d d1 34 a6 3d
       0.21015759 0.012194694 0.07949461 0.08115543
000140 38 dc 84 bc 11 8f 20 3d 10 01 61 3d ee e2 ae bd
       -0.01621829 0.03919894 0.054932654 -0.08539377
000150 1b 46 0c 3d 0b 9c 0b be 45 15 89 3d e1 c5 8f bd
       0.034246545 -0.13633744 0.0669351 -0.07020164
000160 7d b8 ec 3c 83 55 25 3d a0 ea 9c 3d 65 22 42 3d
       0.028896565 0.040364753 0.07661939 0.047396082
000170 3a 5e f4 bd 18 7f b2 bd 09 47 85 bd 0d ad 24 3d
       -0.11932035 -0.087156475 -0.065076895 0.040204097
000180 f5 e4 c5 bd 25 d9 56 bd 9c 9c 75 3d fd c9 8f 3d
       -0.09662811 -0.05245318 0.059963807 0.07020948
000190 a8 f2 0b be 1c d2 ec bd a6 e9 27 be ad a3 97 bd
       -0.13666785 -0.11563513 -0.16397724 -0.074042656
0001a0 7b 58 b1 bc 82 95 70 3d fe 29 4e bd d5 43 7c bd
       -0.021648636 0.05873633 -0.050333016 -0.061588127
0001b0 6c 15 0f 3d 11 a1 d9 3d a5 f5 99 bc bc 57 02 3e
       0.03493254 0.10626424 -0.01879389 0.1272878
0001c0 4b c4 a3 bd 9a b7 72 ba c0 aa 2f bd f2 b3 be 3c
       -0.07996424 -0.0009258926 -0.04288745 0.023279164
0001d0 2b 9e 11 be d8 de ea bd e3 5d 2f 3c 0a e7 06 be
       -0.14220493 -0.11468285 0.010703537 -0.13174072
0001e0 cd 86 5f bd 51 37 10 be e8 ce 2b be 6a f4 e9 bd
       -0.054571915 -0.14083602 -0.16778147 -0.114235714
0001f0 32 93 bb bd 8e 6f eb bb 2c 03 3e 3c b7 99 f1 bd
       -0.09158935 -0.007184929 0.011597436 -0.11796897
