gst_updated/results/100-gumbel_social_transformer-faster_lstm-lr_0.001-init_temp_0.5-edge_head_0-ebd_64-snl_1-snh_8-seed_1000_rand/sj/checkpoint/epoch_100.pt (torch, 827916 bytes, 60 tensors)

gumbel_social_transformer.node_embedding.weight f4 [64, 2]
-0.29574436 0.4715127 -0.15446766 -0.20947787 -0.5977543 0.48211044 -0.4176857 -0.11562683
-0.017105445 0.44364142 -0.22313252 0.34557867 -0.30839518 -1.0137622 0.4650234 -1.1712828
0.42966276 -1.2625332 0.010604708 -0.96566314 -1.2692382 0.6163091 -1.2765741 -0.8925319
-0.3410977 -0.24756451 0.64801306 -0.2565302 -0.26960307 0.4735619 0.85637844 -0.8398794
0.31812224 1.2005253 1.0228152 0.98581105 -0.18134238 0.23500158 0.18154787 0.10490844
-0.24743225 -1.1505576 -0.39958176 1.1889871 1.1684399 0.5039234 0.9460198 -1.2790152
0.4511426 -0.23672545 0.5689826 0.3044485 0.5862718 0.69432116 -0.2809901 -0.55732834
-1.2031188 0.49755886 0.9724525 0.9410142 0.014007418 -0.13592477 -0.14687383 -1.1325575
0.460158 0.45146376 -1.0529406 -0.44556817 0.44710314 0.42931566 -1.1370577 0.12429981
-0.034152206 0.092167124 1.0495126 0.7330975 -1.039227 0.42732364 -0.25838163 0.10299171
0.80289644 -1.0165942 0.37741116 0.93767124 -1.2633022 -0.24510017 -0.69038665 0.6489578
0.7143212 -0.31819177 -0.63073206 -0.96809626 -1.0068777 -0.40784132 0.7076549 -0.8694091
0.15303668 0.7248218 -0.29771814 1.3157614 -1.2886808 0.9428815 0.044471726 0.12850192
-0.25975063 0.35407624 0.12593819 -0.02559172 -1.0404923 -0.40534043 1.217144 0.049156707
1.2492046 0.6147458 -0.55200833 -0.05920013 0.29564932 0.617043 -0.9077359 -0.48004818
-0.076621346 -0.72184026 1.0459349 -0.97329384 -0.7645517 0.042529233 1.1231104 -0.7346251
00000000: ce6b 97be 1d6a f13e c52c 1ebe 5e81 56be
00000010: 6d06 19bf 2ed7 f63e e6da d5be c2cd ecbd
00000020: b820 8cbc f824 e33e da7c 64be b0ef b03e
00000030: f9e5 9dbe f6c2 81bf 8c17 ee3e 98ec 95bf
00000040: c2fc db3e b09a a1bf 5fbf 2d3c b335 77bf
00000050: 6676 a2bf 6fc6 1d3f c866 a3bf f87c 64bf
00000060: 5ca4 aebe 8d81 7dbe 2fe4 253f ed57 83be
00000070: 6a09 8abe b576 f23e 9e3b 5b3f 5602 57bf
00000080: ebe0 a23e d0aa 993f 9ceb 823f 1d5e 7c3f
00000090: d1b1 39be 41a4 703e afe7 393e 3cda d63d
000000a0: e15e 7dbe 7945 93bf fb95 ccbe bb30 983f
000000b0: 708f 953f 2001 013f 5b2e 723f c5b6 a3bf
000000c0: 2afc e63e 2868 72be d8a8 113f ace0 9b3e
000000d0: e915 163f 08bf 313f efdd 8fbe 12ad 0ebf
000000e0: ccff 99bf 09c0 fe3e a6f2 783f 4ee6 703f
000000f0: 5f7f 653c dd2f 0bbe 1866 16be a5f7 90bf
00000100: d499 eb3e 4226 e73e c2c6 86bf 8321 e4be
00000110: b4ea e43e 43cf db3e 1b8b 91bf e690 fe3d
00000120: 2fe3 0bbd 1ec2 bc3d 6e56 863f 47ac 3b3f
00000130: 6405 85bf 2aca da3e 994a 84be 51ed d23d
00000140: 9f8a 4d3f c21f 82bf 093c c13e 390b 703f
00000150: e3b3 a1bf 8afb 7abe 2ebd 30bf 1922 263f
00000160: c1dd 363f 08ea a2be a877 21bf 28d5 77bf
00000170: 5ee1 80bf 94d0 d0be df28 353f 9891 5ebf
00000180: a6b5 1c3e ec8d 393f 836e 98be df6a a83f
00000190: 7ef3 a4bf af60 713f fc27 363d 0296 033e
000001a0: 09fe 84be 7b49 b53e f1f5 003e baa5 d1bc
000001b0: da2e 85bf c888 cfbe 60cb 9b3f 8b58 493d
000001c0: f0e5 9f3f fb5f 1d3f 6b50 0dbf d67b 72bd
000001d0: 595f 973e 88f6 1d3f 6161 68bf e0c8 f5be
000001e0: a7eb 9cbd 86ca 38bf 32e1 853f c929 79bf
000001f0: a9b9 43bf 2233 2e3d 15c2 8f3f 6410 3cbf

gumbel_social_transformer.node_embedding.bias f4 [64]
-0.18096595 0.0610545 -0.030278351 -0.19530424 -0.13674039 0.08260869 0.0448917 -0.1171606
0.4401075 -0.108565636 0.11282249 0.39723596 0.56336796 -0.43859604 0.24782346 0.16029035
0.44792765 0.4556143 0.23345715 -0.043936577 -0.2945134 -0.10252377 0.13436411 0.32952642
0.0038448982 -0.17674519 0.3665374 0.29822442 -0.04624083 0.5899325 0.2618512 -0.47730672
-0.38759172 -0.45314002 -0.06443185 -0.577626 0.5627769 0.26739967 -0.4065295 0.15544409
0.43159017 0.04557492 0.25873843 0.36352926 -0.46370575 0.14372423 0.13230005 -0.16075249
0.16474013 -0.33460727 0.29459524 -0.07710652 -0.10483254 0.36194766 0.524422 -0.33187002
-0.44842678 0.08125314 0.06570197 -0.16451454 0.2560226 -0.23639894 0.017905965 0.49506086
00000000: 234f 39be 4914 7a3d 4e0a f8bc d6fd 47be
00000010: ac05 0cbe bf2e a93d 5ce0 373d e6f1 efbd
00000020: c555 e13e a957 debd 7a0f e73d 8362 cb3e
00000030: e238 103f a98f e0be 6fc5 7d3e 2723 243e
00000040: c656 e53e 4746 e93e 640f 6f3e d7f6 33bd
00000050: 76ca 96be fbf7 d1bd bf96 093e b0b7 a83e
00000060: b0fa 7b3b b1fc 34be caaa bb3e dfb0 983e
00000070: 0667 3dbd d105 173f 5c11 863e 8c61 f4be
00000080: 6c72 c6be f801 e8be d9f4 83bd 4cdf 13bf
00000090: 2612 103f 9ce8 883e a224 d0be bc2c 1f3e
000000a0: 63f9 dc3e c4ac 3a3d 5d79 843e 8220 ba3e
000000b0: d76a edbe 722c 133e aa79 073e 4d9c 24be
000000c0: a3b1 283e a551 abbe 30d5 963e 06ea 9dbd
000000d0: 71b2 d6bd 3451 b93e 8540 063f deea a9be
000000e0: 3298 e5be 0c68 a63d c18e 863d 8076 28be
000000f0: 6515 833e 9012 72be 88af 923c 9e78 fd3e

gumbel_social_transformer.node_encoder_layers.0.self_attn.in_proj_weight f4 [192, 64]
-0.14121959 0.0370377 -0.156975 0.055260316 -0.10262909 -0.12981153 0.07948111 0.13000838
0.123840936 -0.06425099 -0.09034041 -0.020331992 0.039651237 -0.09038108 0.0121856835 0.19243425
0.04285499 0.073260434 0.046028633 0.21442907 0.08854167 -0.07091587 0.1741033 0.0665446
0.04889117 0.20272921 -0.002492924 -0.047631063 0.034270562 -0.05852997 -0.13970263 -0.0483983
0.057204615 0.04276411 0.14359184 0.09012127 -0.1412345 -0.11317445 -0.0729222 -0.1907507
0.0032426447 -0.11058499 -0.09831305 -0.033233948 0.1904396 -0.061249543 -0.22007807 0.106204025
0.08488359 -0.12626521 -0.0049912743 -0.11453478 -0.13262038 0.023740727 0.040261984 0.14675869
0.03674031 -0.08225111 0.1382161 -0.045774657 -0.11961451 0.18501538 -0.12628146 -0.050137363
0.12288573 0.042780288 -0.12627412 -0.06489153 0.16625325 -0.076627925 0.103556536 0.3045817
-0.07307636 0.0070343786 -0.48818228 -0.18594874 0.04071683 0.18908043 -0.07166609 0.009914926
0.02682165 -0.043911193 -0.06578322 0.31725708 0.17683415 -0.13797098 0.03848467 0.09083764
0.24405451 0.22477075 0.013458745 -0.16246821 -0.267977 -0.100601815 -0.049460746 0.09229628
0.2876389 0.15370584 0.08425751 -0.077148095 0.032294028 -0.109913066 -0.14423007 -0.09746434
-0.036483746 0.2003828 -0.46142337 -0.24490575 0.22940175 -0.13820532 -0.20312376 0.32949084
-0.02427216 -0.09610477 -0.32348207 0.2623751 0.15156212 -0.07317296 -0.29608408 0.28760913
0.10928577 -0.13719483 -0.06888866 -0.1037622 -0.12155762 0.42037234 -0.38255742 0.0669514
-0.071622014 0.12238161 0.090545826 -0.12648796 -0.07945023 -0.11098401 0.10161511 0.05810069
-0.042693444 0.1596403 0.12960652 0.060200028 -0.00047540074 -0.14982788 0.08983464 0.073810086
0.11659491 0.09181111 -0.08858654 0.0019377753 -0.11219072 -0.17457047 -0.10489947 0.09138565
0.058643904 -0.11058888 -0.11532101 0.094023 -0.023595268 0.020161062 0.1252528 -0.06015619
0.04073891 -0.10845189 0.008068163 -0.13261987 0.13750966 -0.21356648 0.016871218 0.040371586
0.0945295 -0.27559808 0.12891477 -0.02439828 -0.13000304 0.1094689 0.24924485 0.13475601
-0.05446012 -0.026647283 -0.03957359 -0.09903489 -0.08077804 -0.13364343 0.16587038 -0.06552771
0.09611402 0.11790233 -0.22040048 -0.0029846015 -0.08963392 -0.033506583 0.07269426 -0.068042085
-0.047826916 0.032107197 0.18383884 -0.07107428 -0.030318098 -0.049923033 -0.10185089 -0.06692045
-0.014487906 -0.15290259 0.34113246 -0.10084361 0.0830324 -0.0026663449 0.08995099 0.03713317
-0.058722224 0.08010949 -0.09269619 -0.13801055 0.059058644 0.08191959 -0.17598933 0.0270439
-0.06890578 -0.15080152 0.02711354 0.03331197 0.18103419 -0.023568876 0.13150047 -0.14225774
-0.1715408 -0.13720143 0.09503439 0.11175391 -0.013998848 -0.12612064 0.01256727 0.13657048
0.03364057 0.09746517 0.11038712 -0.041203402 -0.18121903 -0.03097201 0.24747811 -0.23316124
-0.027063323 0.12658836 0.032096736 0.016084233 -0.042852215 0.013971935 0.13095061 -0.1335312
-0.10125196 -0.033166207 0.14098094 0.03420225 -0.03863898 -0.11668638 0.11417638 -0.051443364
00000000: de9b 10be d8b4 173d 0ebe 20be a458 623d
00000010: 332f d2bd 50ed 04be fec6 a23d eb20 053e
00000020: 51a0 fd3d 0696 83bd 6504 b9bd 478f a6bc
00000030: 5669 223d b719 b9bd 76a6 473c 7c0d 453e
00000040: b788 2f3d 9109 963d 8588 3c3d 4b93 5b3e
00000050: 5655 b53d 573c 91bd 2348 323e 8948 883d
00000060: 1c42 483d 3f98 4f3e 5360 23bb ca18 43bd
00000070: 4a5f 0c3d 1fbd 6fbd 350e 0fbe 4c3d 46bd
00000080: 634f 6a3d 6b29 2f3d bd09 133e 8091 b83d
00000090: c79f 10be 02c8 e7bd 3c58 95bd 2754 43be
000000a0: 8d82 543b 627a e2bd 5a58 c9bd 5220 08bd
000000b0: 9902 433e cde0 7abd 255c 61be 7f81 d93d
000000c0: 73d7 ad3d ab4b 01be d88d a3bb 3691 eabd
000000d0: a3cd 07be ea7b c23c c0e9 243d e947 163e
000000e0: 027d 163d 4573 a8bd 8588 0d3e 357e 3bbd
000000f0: 74f8 f4bd ac74 3d3e ed4f 01be d65c 4dbd
00000100: 83ab fb3d 623a 2f3d 014e 01be dae5 84bd
00000110: 4b3e 2a3e 1aef 9cbd 7315 d43d 22f2 9b3e
00000120: 0fa9 95bd a580 e63b 07f3 f9be 5969 3ebe
00000130: b1c6 263d 4d9e 413e acc5 92bd 3772 223c
00000140: 14b9 db3c 39dc 33bd 5ab9 86bd 856f a23e
00000150: 0314 353e 4448 0dbe 1aa2 1d3d 1609 ba3d
00000160: 6de9 793e 4e2a 663e 1182 5c3c 115e 26be
00000170: 4834 89be 5308 cebd 5a97 4abd d505 bd3d
00000180: 6845 933e 1065 1d3e 348f ac3d d2ff 9dbd
00000190: be46 043d 1a1a e1bd 0cb1 13be 629b c7bd
000001a0: fb6f 15bd 2631 4d3e af3f ecbe 93c8 7abe
000001b0: 4be8 6a3e b285 0dbe adff 4fbe 06b3 a83e
000001c0: 69d6 c6bc 94d2 c4bd 719f a5be 0756 863e
000001d0: 1a33 1b3e b4db 95bd 5598 97be 8141 933e
000001e0: 38d1 df3d cd7c 0cbe 7f15 8dbd 4781 d4bd
000001f0: 34f3 f8bd 0b3b d73e 91de c3be d11d 893d
00000200: 90ae 92bd 36a3 fa3d 1770 b93d 0f86 01be
00000210: cdb6 a2bd 964b e3bd 951b d03d fdfa 6d3d
00000220: 52df 2ebd bf78 233e 92b7 043e 4e94 763d
00000230: 353f f9b9 7b6c 19be 39fb b73d be29 973d
00000240: 50c9 ee3d 7707 bc3d dc6c b5bd f3fc fd3a
00000250: 40c4 e5bd 9ac2 32be 89d5 d6bd 6628 bb3d
00000260: 9734 703d 6c7c e2bd 6c2d ecbd 218f c03d
00000270: dd4a c1bc d028 a53c 4542 003e 5666 76bd
00000280: d8dd 263d 061c debd 5430 043c 81cd 07be
00000290: 55cf 0c3e 2cb1 5abe 8235 8a3c ad5c 253d
000002a0: af98 c13d 311b 8dbe 3c02 043e e7de c7bc
000002b0: 841f 05be 3b31 e03d 0b3a 7f3e 7bfd 093e
000002c0: 9311 5fbd 674b dabc eb17 22bd ced2 cabd
000002d0: f56e a5bd d3d9 08be edd9 293e 6433 86bd
000002e0: 6dd7 c43d c776 f13d aab0 61be 4e99 43bb
000002f0: fd91 b7bd 333e 09bd bae0 943d a659 8bbd
00000300: 28e6 43bd d682 033d 4040 3c3e 648f 91bd
00000310: a95d f8bc 187c 4cbd 3397 d0bd 970d 89bd
00000320: af5e 6dbc 7f92 1cbe eaa8 ae3e 1887 cebd
00000330: e40c aa3d d8bd 2ebb 3a38 b83d f318 183d
00000340: b786 70bd 7210 a43d 80d7 bdbd a352 0dbe
00000350: 7ae7 713d 75c5 a73d 8c36 34be 2b8b dd3c
00000360: 791e 8dbd b76b 1abe 371d de3c 2272 083d
00000370: 0761 393e 8413 c1bc 0fa8 063e 03ac 11be
00000380: 64a8 2fbe 887e 0cbe 64a1 c23d 3cdf e43d
00000390: 6d5b 65bc c525 01be f3e6 4d3c 22d9 0b3e
000003a0: b2ca 093d d29b c73d a412 e23d e6c4 28bd
000003b0: 7b91 39be 03b9 fdbc e76a 7d3e d2c1 6ebe
000003c0: e7b3 ddbc 61a0 013e de77 033d 15c3 833c
000003d0: ce85 2fbd 8bea 643c eb17 063e 67bc 08be
000003e0: 305d cfbd 4ad9 07bd 4f5d 103e a917 0c3d
000003f0: e843 1ebd 45f9 eebd 4ed5 e93d 47b6 52bd

gumbel_social_transformer.node_encoder_layers.0.self_attn.in_proj_bias f4 [192]
0.005516892 -0.046370372 0.020565106 -0.009482105 -0.03630107 -0.02588148 -0.018297682 -0.024041593
-0.051137846 0.049959287 0.008965023 -0.03569707 -0.01793468 0.055302303 -0.055003107 -0.01678702
0.0287614 0.00082140963 -0.1371147 0.040044986 0.027209003 0.06744991 -0.115408026 -0.053590566
-0.00266248 -0.16765904 0.13880602 -0.039997607 0.16561142 -0.11778546 -0.06694848 -0.076958306
-0.13420999 -0.022682138 -0.045129504 -0.10435811 -0.105701365 0.08240296 -0.07100008 -0.113478445
-0.16026503 0.090041965 0.041872073 -0.04511992 0.037244156 0.11509177 0.11857333 -0.06978252
-0.03425183 0.08645725 0.040714007 0.048837055 -0.0349749 0.10093196 0.019404633 -0.015181221
-0.0811892 -0.028621113 -0.050333362 -0.059527155 -0.028398482 0.0019118397 -0.038397048 -0.033444535
-0.0038673652 0.0007595528 -0.0016164143 -0.0049254647 -0.003725134 -0.009553498 -0.005533965 0.0019365832
0.00026489713 -0.0012837616 -0.0015378328 0.00079052313 0.0014687364 -0.00240708 -0.004238921 0.0030109442
0.04386123 0.017744062 -0.066920154 0.005078025 -1.077435e-06 0.020207552 -0.012659228 0.0045039235
0.0066859443 -0.029438553 -0.011203813 -0.0028714652 0.010959856 -0.030243592 -0.008506696 0.0039545665
0.006831724 -0.0018067976 -0.0012025385 -0.00044617872 -0.0104088485 0.002338608 -0.0043550753 -0.0018706833
0.015276801 0.008502427 -0.0002239706 -0.015339949 -0.0033170434 -0.0026648606 0.011983585 -0.001704156
0.0021492958 0.0041987468 0.00182211 -0.0021368328 -0.006600761 0.0026445775 0.0010815782 0.00019346236
-0.00076893135 0.00024464633 0.008903376 0.0012827365 -0.0015339532 -0.001319541 0.00584487 -0.0019684415
-0.024375902 0.010260223 0.029695304 -0.030356817 -0.013745948 0.0041110152 0.013079975 -0.007907108
-0.020732084 -0.008529463 -6.9595684e-05 -0.039727222 0.007985968 -0.003968854 -0.0034337835 0.016834222
0.020953879 0.010437928 -0.04259159 0.0015148048 -0.02578808 -0.0045135864 0.009007777 0.0011576646
0.027421027 0.026723025 -0.01684318 0.01088818 -0.024985177 -0.018909808 -0.01360809 0.06146022
-0.007872364 -0.0109255025 0.0064109243 -0.025280777 0.03209559 0.009745342 0.035546713 0.0010518726
0.0017242985 -0.03814851 0.034886766 0.012843227 0.0053121625 -0.0042494116 -0.013161908 -0.0031512529
0.0143324975 0.009085653 -0.013105677 -0.0076685734 0.009294078 0.004803845 -0.009182431 -0.0054651313
0.016531602 -0.014586881 0.0073078214 0.03556336 -0.011729827 0.020017358 -0.0033229983 -0.0035094626
00000000: 0bc7 b43b dcee 3dbd 2778 a83c d55a 1bbc
00000010: 6eb0 14bd 6605 d4bc 05e5 95bc e0f2 c4bc
00000020: eb75 51bd 1ca2 4c3d 08e2 123c 1737 12bd
00000030: c0eb 92bc ab84 623d f04a 61bd ef84 89bc
00000040: 079d eb3c de53 573a cc67 0cbe 3606 243d
00000050: 6ae5 de3c 2e23 8a3d 0b5b ecbd c881 5bbd
00000060: 017d 2ebb d0ae 2bbe 2a23 0e3e 88d4 23bd
00000070: 0a96 293e 8139 f1bd 491c 89bd 519c 9dbd
00000080: 586e 09be e4cf b9bc b7d9 38bd b4b9 d5bd
00000090: f579 d8bd e2c2 a83d 7d68 91bd 6367 e8bd
000000a0: 841c 24be ec67 b83d 0d82 2b3d aacf 38bd
000000b0: 548d 183d 3cb5 eb3d 93d6 f23d 23ea 8ebd
000000c0: a64b 0cbd 8010 b13d bbc3 263d 5d09 483d
000000d0: d741 0fbd 6ab5 ce3d 77f6 9e3c a8ba 78bc
000000e0: 8646 a6bd d376 eabc 5b2a 4ebd bfd2 73bd
000000f0: efa3 e8bc b296 fa3a 3946 1dbd 23fd 08bd
00000100: 9f73 7dbb ba1c 473a dddd d3ba cb65 a1bb
00000110: 6121 74bb 4686 1cbc 4356 b5bb f3d4 fd3a
00000120: e4e1 8a39 e443 a8ba 1b91 c9ba 1c3b 4f3a
00000130: 9e82 c03a 1ac0 1dbb a6e6 8abb 4353 453b
00000140: d5a7 333d ff5b 913c 6f0d 89bd 9065 a63b
00000150: 629c 90b5 4f8a a53c a768 4fbc a695 933b
00000160: c415 db3b 1f29 f1bc 3390 37bc 312f 3cbb
00000170: f890 333c 69c1 f7bc ab5f 0bbc 4f95 813b
00000180: a8dc df3b 11d2 ecba 7f9e 9dba 18ed e9b9
00000190: e089 2abc 5543 193b 05b5 8ebb b731 f5ba
000001a0: 8c4b 7a3c c34d 0b3c a6d9 6ab9 6954 7bbc
000001b0: c162 59bb f1a4 2ebb cc56 443c fd5d dfba
000001c0: 33db 0c3b a495 893b ded3 ee3a 1b0a 0cbb
000001d0: 324b d8bb a650 2d3b bec3 8d3a 28dc 4a39
000001e0: 1c92 49ba e043 8039 77df 113c 7f21 a83a
000001f0: ee0e c9ba 73f4 acba 5386 bf3b f800 01bb
00000200: f9af c7bc 7f1a 283c 9143 f33c dcae f8bc
00000210: af36 61bc b2b5 863b 644d 563c d18c 01bc
00000220: 55d6 a9bc 29bf 0bbc e6f3 91b8 03b9 22bd
00000230: 94d7 023c 290d 82bb 5409 61bb ece7 893c
00000240: 78a7 ab3c d803 2b3c 8574 2ebd 6a8c c63a
00000250: 8641 d3bc b5e6 93bb 5b95 133c c7bc 973a
00000260: 10a2 e03c 3fea da3c b5fa 89bc 5664 323c
00000270: b7ad ccbc bee8 9abc 77f4 5ebc b6bd 7b3d
00000280: 16fb 00bc e100 33bc bb12 d23b a219 cfbc
00000290: aa76 033d edaa 1f3c 6e99 113d fdde 893a
000002a0: db01 e23a 9d41 1cbd 6de5 0e3d 666c 523c
000002b0: a611 ae3b a63e 8bbb 0ba5 57bc 4085 4ebb
000002c0: dad2 6a3c fedb 143c 32b9 56bc a848 fbbb
000002d0: 3046 183c 9369 9d3b e871 16bc d814 b3bb
000002e0: 486d 873c d0fd 6ebc 7376 ef3b e3aa 113d
000002f0: 762e 40bc 71fb a33c a9c6 59bb 03ff 65bb

gumbel_social_transformer.node_encoder_layers.0.self_attn.out_proj.weight f4 [64, 64]
-0.13061708 -0.16066773 0.016345503 0.19915101 0.12243949 0.15579823 0.21882619 -0.1312849
-0.11823834 0.052049696 0.035898812 -0.050165094 0.106829844 -0.10475926 0.008362352 -0.01685485
-0.034866277 0.03500091 -0.19650534 -0.09216299 -0.00597501 0.057430748 -0.13058555 -0.025841538
0.056685265 0.03508086 -0.008031235 -0.0064251074 -0.016920652 -0.041613273 -0.08422894 0.23059393
0.09050405 0.007859859 -0.15294066 -0.00831043 -0.03393544 0.087038636 -0.13976122 0.08411135
-0.013694614 -0.24286072 0.08235361 -0.057128288 0.017457774 -0.03893608 0.16536674 0.05902006
0.0058344686 0.053881522 0.04173605 -0.01565091 -0.10760718 -0.13815993 0.049391247 0.15340438
-0.031291995 -0.09437841 -0.06274448 -0.0937619 0.06884329 0.070227556 -0.047985405 0.034959886
-0.01669866 -0.0002649518 -0.014935172 0.10364627 -0.0153678525 0.14895518 0.08509766 -0.14652711
0.07747486 -0.09452211 -0.10788939 -0.12486822 0.14929639 -0.026632331 -0.015259139 0.030880863
-0.021541843 0.14721896 -0.0661577 -0.0052493857 0.066234924 0.04601151 0.07187737 -0.0004942938
-0.029230246 -0.051123027 0.003938625 0.035808552 -0.068263754 0.032013774 0.10109091 0.09603337
0.008864056 0.027161274 -0.028930666 0.0314294 0.018031118 0.0007364399 0.045903243 -0.01282337
0.12204417 -0.1640144 -0.0018343218 0.07985277 -0.062135976 0.05997007 0.010190375 -0.041867856
-0.13232367 0.025191661 0.03153492 -0.06867676 0.039228577 -0.09407593 -0.034337185 0.035002347
-0.019210923 -0.10058939 -0.061000265 0.028186321 -0.019730596 0.032493662 0.032719694 0.020920614
0.11631363 -0.11360303 -0.08306187 0.046001557 0.014789176 -0.035490155 -0.02368989 0.012419949
-0.028859926 0.033050697 -0.011770312 0.053756323 0.06222119 -0.0696324 -0.070519045 -0.0016068162
-0.030640746 0.07019206 -0.14076078 0.016462822 0.020516457 0.05265881 0.031225406 -0.09598924
0.09752793 -0.046324592 -0.019654656 0.034123946 -0.010449884 0.038061753 0.054329827 -0.0067972797
-0.011649125 -0.029342923 -0.03918141 0.053451896 -0.02880036 -0.01990271 0.010447997 0.10704203
0.100237235 -0.010110015 -0.014162516 0.014176479 0.08544781 0.07258764 -0.011635984 0.06535523
-0.04163035 -0.13790292 0.010539975 -0.1073799 0.096247315 -0.053338077 0.0064033424 -0.09840682
0.109606534 0.016839756 0.06296413 0.027709736 0.0032112189 -0.034314834 -0.03228057 -0.027910179
-0.06198882 -0.032499477 -0.025090946 0.07383762 -0.02200799 0.10629114 -0.0323801 -0.09351817
0.018611751 0.071660526 -0.047144193 -0.06917825 -0.119967565 -0.033101503 -0.046682067 -0.001710734
-0.01501764 0.051149298 0.067577414 -0.055693567 -0.00238237 0.007119856 -0.016573062 -0.14173046
-0.022087274 0.020685043 0.069293216 -0.0014717825 -0.08438167 -0.031544402 -0.08128804 0.25003344
0.004778206 -0.094650485 -0.024994468 -0.13949871 -0.032251753 0.06560051 0.13466606 0.068898685
-0.077484146 -0.19153914 0.017189734 -0.00565232 -0.048080657 0.032012567 -0.074048944 -0.029986195
-0.0039074 -0.030010212 -0.08982182 0.093186066 -0.11001997 0.16416875 0.0702173 -0.11793604
0.119997144 0.12795909 -0.040234067 -0.13081801 0.052054808 -0.029550714 0.016714534 -0.06783974
00000000: 7cc0 05be 1586 24be 01e7 853c 3eee 4b3e
00000010: 8ec1 fa3d 9289 1f3e f913 603e 8c6f 06be
00000020: f126 f2bd 1032 553d a20a 133d ea79 4dbd
00000030: 9bc9 da3d 068c d6bd 3f02 093c 2f13 8abc
00000040: f1cf 0ebd 1d5d 0f3d b238 49be f3bf bcbd
00000050: 04ca c3bb 813c 6b3d 38b8 05be a2b1 d3bc
00000060: cf2e 683d f3b0 0f3d 7195 03bc b589 d2bb
00000070: 2e9d 8abc ae72 2abd 3980 acbd d120 6c3e
00000080: 305a b93d a3c6 003c 7a9c 1cbe 7828 08bc
00000090: e3ff 0abd 5041 b23d 911d 0fbe 9242 ac3d
000000a0: 605f 60bc 7bb0 78be 02a9 a83d 5aff 69bd
000000b0: 9b03 8f3c 707b 1fbd e655 293e 05bf 713d
000000c0: 122f bf3b dfb2 5c3d 6cf3 2a3d 5636 80bc
000000d0: 2761 dcbd cc79 0dbe 7a4e 4a3d 0a16 1d3e
000000e0: 092c 00bd 7849 c1bd 2e80 80bd 3d06 c0bd
000000f0: b6fd 8c3d 77d3 8f3d 588c 44bd 1932 0f3d
00000100: a1cb 88bc 3be9 8ab9 a7b2 74bc 7f44 d43d
00000110: 72c9 7bbc b587 183e af47 ae3d 340b 16be
00000120: 24ab 9e3d cf94 c1bd 1df5 dcbd e9ba ffbd
00000130: 27e1 183e 0c2c dabc 7801 7abc ddf9 fc3c
00000140: 8578 b0bc 91c0 163e b07d 87bd 0a03 acbb
00000150: 2da6 873d 9176 3c3d 7134 933d 7f93 01ba
00000160: 4574 efbc 6166 51bd 950f 813b fdab 123d
00000170: decd 8bbd e020 033d c008 cf3d 25ad c43d
00000180: 8c3a 113c 5281 de3c 0100 edbc 1dbc 003d
00000190: ffb5 933c a50d 413a 0a05 3c3d 1d19 52bc
000001a0: 4bf2 f93d 64f3 27be a06d f0ba d989 a33d
000001b0: 4b82 7ebd 2da3 753d 88f5 263c a17d 2bbd
000001c0: db7f 07be be5e ce3c c32a 013d 67a6 8cbd
000001d0: 25ae 203d e2aa c0bd 26a5 0cbd 9f5e 0f3d
000001e0: 3a60 9dbc cf01 cebd 6adb 79bd 00e7 e63c
000001f0: 0fa2 a1bc 1318 053d 1605 063d b561 ab3c
00000200: d735 ee3d b5a8 e8bd 571c aabd 216c 3c3d
00000210: 4d4e 723c 205e 11bd 4d11 c2bc 0b7d 4b3c
00000220: a76b ecbc 2b60 073d 44d8 40bc 972f 5c3d
00000230: a6db 7e3d 6f9b 8ebd 4a6c 90bd ce9b d2ba
00000240: 4d02 fbbc dbc0 8f3d 9823 10be 0add 863c
00000250: 2112 a83c c4b0 573d 6ccc ff3c 0296 c4bd
00000260: b9bc c73d dbbe 3dbd cd02 a1bc 8dc5 0b3d
00000270: fe35 2bbc a4e6 1b3d f488 5e3d b7bb debb
00000280: f9db 3ebc 9260 f0bc b07c 20bd 60f0 5a3d
00000290: bcee ebbc 020b a3bc 132e 2b3c da38 db3d
000002a0: 2e49 cd3d 7aa4 25bc e609 68bc 7644 683c
000002b0: 43ff ae3d d4a8 943d dba4 3ebc f6d8 853d
000002c0: 9684 2abd 6c36 0dbe dcaf 2c3c fee9 dbbd
000002d0: 501d c53d 0779 5abd 21d3 d13b 8489 c9bd
000002e0: 6479 e03d 87f3 893c 56f3 803d 87ff e23c
000002f0: 5073 523b b68d 0cbd a238 04bd e3a3 e4bc
00000300: fde7 7dbd 2c1e 05bd 878b cdbc 2e38 973d
00000310: 1a4a b4bc 2baf d93d ffa0 04bd 7486 bfbd
00000320: ac77 983c c1c2 923d 451a 41bd 54ad 8dbd
00000330: 8eb1 f5bd 7195 07bd b235 3fbd b53a e0ba
00000340: 8c0c 76bc ed81 513d 0766 8a3d f01e 64bd
00000350: 8921 1cbb ae4d e93b 3bc4 87bc ca21 11be
00000360: 5ff0 b4bc ae73 a93c 9ae9 8d3d d3e8 c0ba
00000370: 4cd0 acbd b434 01bd 587a a6bd 6204 803e
00000380: 7f92 9c3b 1dd8 c1bd 33c1 ccbc c0d8 0ebe
00000390: 6a1a 04bd 8f59 863d e6e5 093e c11a 8d3d
000003a0: 02b0 9ebd d622 44be 7cd1 8c3c 1937 b9bb
000003b0: 39f0 44bd 9c1f 033d f9a6 97bd 9ca5 f5bc
000003c0: a609 80bb fad7 f5bc 81f4 b7bd 56d8 be3d
000003d0: 2652 e1bd da1b 283e 16ce 8f3d 7388 f1bd
000003e0: 10c1 f53d b507 033e 7acc 24bd 28f5 05be
000003f0: 6c37 553d 5714 f2bc ebec 883c 90ef 8abd

gumbel_social_transformer.node_encoder_layers.0.self_attn.out_proj.bias f4 [64]
0.19441701 0.021126525 0.03240974 0.07048475 0.058959972 0.06040583 0.0075672353 0.01115173
-0.03387446 0.054445393 -0.013598414 -0.013861379 -0.071399614 0.19128662 -0.021337556 -0.019036196
-0.020583931 -0.037552025 -0.013214491 0.035811912 0.022997033 0.0022448245 -0.004287194 0.0041652373
0.030940523 0.031073874 -0.046088215 -0.03386631 0.015954847 -0.038326815 -0.007347528 0.049779013
0.1763716 0.010391566 0.023874683 0.00524584 -0.17149515 0.0076468685 0.058763575 0.08158888
-0.054581698 -0.004709734 -0.018964006 -0.090603046 0.033451967 -0.0019148381 -0.017097443 0.00010025788
-0.023787992 0.035271045 -0.014567832 0.044607494 0.036240082 -0.055254474 -0.045867477 0.006284591
0.049408365 -0.049090244 0.024254253 0.03377745 -0.039209288 0.016468888 -0.105833575 -0.048262477
00000000: 4115 473e 8911 ad3c 13c0 043d 4f5a 903d
00000010: 0380 713d 1b6c 773d 92f6 f73b bfb5 363c
00000020: f2bf 0abd 2202 5f3d e2cb 5ebc d61a 63bc
00000030: f639 92bd a4e0 433e 19cc aebc ccf1 9bbc
00000040: a29f a8bc 27d0 19bd 9881 58bc 83af 123d
00000050: 4664 bc3c e81d 133b 977b 8cbb 8b7c 883b
00000060: fb76 fd3c a38e fe3c ffc6 3cbd 66b7 0abd
00000070: bdb3 823c 94fc 1cbd 88c3 f0bb 14e5 4b3d
00000080: c29a 343e 6341 2a3c d794 c33c 4ce5 ab3b
00000090: 6d9c 2fbe 9592 fa3b 13b2 703d 1218 a73d
000000a0: 0f91 5fbd 1d54 9abb 675a 9bbc 178e b9bd
000000b0: ee04 093d 4efb faba f00f 8cbc 8a41 d238
000000c0: 09df c2bc 5f78 103d ebad 6ebc 59b6 363d
000000d0: 7b70 143d 8452 62bd 89df 3bbd f8ee cd3b
000000e0: 6d60 4a3d da12 49bd dbb0 c63c 395a 0a3d
000000f0: eb99 20bd c3e9 863c 46bf d8bd e0ae 45bd

gumbel_social_transformer.node_encoder_layers.0.norm_node.weight f4 [64]
0.54966503 0.7245586 0.92623353 0.73672694 0.6394144 0.78445417 1.4618945 1.227887
0.9205271 0.8753046 1.3234761 1.0618764 0.7479453 0.6295004 0.69162256 1.0762817
0.9691176 0.9700463 0.78808343 0.7587214 0.96832526 1.1498204 1.3815631 1.1260772
0.9329442 0.71149397 0.7651933 0.80408996 1.1677781 0.9579849 0.6718528 0.8509857
0.53320336 0.95435745 0.931075 0.8806248 0.62027895 1.1277276 0.79924726 0.8660777
0.9037005 1.4268154 1.047572 0.63479424 0.78706604 1.2729958 1.1536931 0.98668283
0.9545821 0.93960106 1.1479067 0.6550539 0.7330401 0.6993923 0.81151116 0.99415356
0.93601817 0.7184626 1.1809326 0.9283947 0.84248304 1.0510824 0.8884903 0.8927775
00000000: d9b6 0c3f ac7c 393f a41d 6d3f 239a 3c3f
00000010: aab0 233f fdd1 483f 5c1f bb3f 672b 9d3f
00000020: aaa7 6b3f f613 603f aa67 a93f 91eb 873f
00000030: 5879 3f3f f026 213f 2d0e 313f 99c3 893f
00000040: 1718 783f f454 783f d6bf 493f 913b 423f
00000050: 2ae4 773f 512d 933f 0fd7 b03f 4c23 903f
00000060: 6ed5 6e3f 7824 363f b5e3 433f d7d8 4d3f
00000070: c179 953f 803e 753f 8cfe 2b3f 33da 593f
00000080: 0480 083f c550 743f ee5a 6e3f a070 613f
00000090: 9aca 1e3f 6159 903f 789b 4c3f 45b7 5d3f
000000a0: ea58 673f e3a1 b63f d716 863f e081 223f
000000b0: 297d 493f 87f1 a23f 37ac 933f 3f97 7c3f
000000c0: 7e5f 743f b289 703f 9bee 923f 9db1 273f
000000d0: 84a8 3b3f 600b 333f 32bf 4f3f d980 7e3f
000000e0: e39e 6f3f 2aed 373f cd28 973f 46ab 6d3f
000000f0: f8ac 573f de89 863f 1a74 633f 118d 643f

gumbel_social_transformer.node_encoder_layers.0.norm_node.bias f4 [64]
0.36144137 0.0029571909 0.11430416 0.2767735 0.32606882 0.069904864 0.00057265826 0.056126684
-0.18911217 0.1777251 -0.03473209 -0.10440095 -0.318306 0.4167725 -0.28257158 -0.10836441
-0.17492044 -0.14727607 -0.2503072 0.18435845 0.14916709 0.05492635 -0.013434734 -0.080807835
0.06529545 0.21918212 -0.25403944 -0.15992436 0.07078184 -0.1474885 -0.34016123 0.22627719
0.43280423 0.1412909 0.10170014 0.2066305 -0.44687885 -0.053900577 0.29201892 -0.07551974
-0.18978867 -0.014231839 -0.10906739 -0.34009063 0.2382306 0.021844396 -0.03491387 0.16413556
-0.11015261 0.1699641 -0.08036348 0.20838326 0.24943657 -0.3527747 -0.21736388 0.13826576
0.17298187 -0.15135004 -0.02402205 0.17246595 -0.22094947 0.12664908 -0.06569491 -0.23431617
00000000: d80e b93e 6ecd 413b 4d18 ea3d 42b5 8d3e
00000010: 7ef2 a63e 482a 8f3d 721e 163a 18e5 653d
00000020: 9fa6 41be 92fd 353e 3c43 0ebd 2ad0 d5bd
00000030: 01f9 a2be 3563 d53e 39ad 90be 29ee ddbd
00000040: 581e 33be 8acf 16be 4428 80be 76c8 3c3e
00000050: 42bf 183e 74fa 603d 5c1d 5cbc 947e a5bd
00000060: 9fb9 853d 4771 603e 7511 82be 36c3 23be
00000070: 12f6 903d 3a07 17be 9d29 aebe 35b5 673e
00000080: 8498 dd3e 90ae 103e 2a48 d03d f296 533e
00000090: 4ecd e4be dac6 5cbd 8183 953e 18aa 9abd
000000a0: f657 42be a92c 69bc b95e dfbd 5c20 aebe
000000b0: b9f2 733e 05f3 b23c d901 0fbd 2713 283e
000000c0: b197 e1bd 120b 2e3e 9c95 a4bd 6c62 553e
000000d0: 4d6c 7f3e e39e b4be a394 5ebe 8a95 0d3e
000000e0: 2922 313e 81fb 1abe e4c9 c4bc ea9a 303e
000000f0: 9440 62be 4cb0 013e 0e8b 86bd 94f0 6fbe

gumbel_social_transformer.node_encoder_layers.0.norm1_node.weight f4 [64]
0.7782634 0.48673287 0.7324581 0.8266452 0.82788235 0.82219267 0.96958905 0.8877728
0.82953066 0.7447488 0.86518186 0.83402157 1.0299882 0.75292677 0.7856804 0.7765356
1.0360795 1.068845 0.81710535 0.97369975 1.0729312 0.98365283 1.064062 0.97554815
0.9010399 0.7635247 0.8011979 0.8941687 0.8750951 0.98538333 0.64263827 1.0527442
0.7949722 1.1041986 0.6939376 1.0753003 0.9510798 1.1617149 0.88730145 0.8131176
0.98210275 0.9815972 0.82100457 0.70518154 0.8806274 0.7838252 0.8949258 0.8500286
0.7276176 0.8718424 0.97664744 0.8102149 0.738375 0.9510617 1.0104799 0.89660865
0.82387 0.85231096 0.830436 0.9132473 0.8153404 1.004192 0.7071097 0.9533008
00000000: 453c 473f 0d35 f93e 6082 3b3f 059f 533f
00000010: 19f0 533f 387b 523f fd36 783f 1445 633f
00000020: 1f5c 543f dba7 3e3f 8f7c 5d3f 7082 553f
00000030: a7d6 833f cfbf 403f 5a22 493f 09cb 463f
00000040: 419e 843f eacf 883f d12d 513f 6344 793f
00000050: cf55 893f acd0 7b3f 2f33 883f 86bd 793f
00000060: 8daa 663f 5b76 433f 4e1b 4d3f 3de8 643f
00000070: 3c06 603f 1542 7c3f f183 243f 52c0 863f
00000080: 4c83 4b3f 6156 8d3f e5a5 313f 71a3 893f
00000090: f779 733f 13b3 943f 3026 633f 7a28 503f
000000a0: 166b 7b3f f449 7b3f 5b2d 523f c786 343f
000000b0: cc70 613f c5a8 483f db19 653f 799b 593f
000000c0: 2645 3a3f 1031 5f3f 9105 7a3f 3e6a 4f3f
000000d0: 2506 3d3f c878 733f 6857 813f 2588 653f
000000e0: 25e9 523f 0d31 5a3f 7497 543f 93ca 693f
000000f0: 26ba 503f 5d89 803f 2405 353f 850b 743f

gumbel_social_transformer.node_encoder_layers.0.norm1_node.bias f4 [64]
-0.007416429 0.02625147 0.0018617262 0.007387725 -0.10677279 -0.10840308 -0.022498123 0.065706976
-0.13281596 0.0020812987 -0.027687866 -0.1775063 -0.030092021 0.10590335 0.027933061 -0.014855488
-0.027968213 0.009900484 0.0689509 -0.07776345 0.0095686745 -0.041376922 0.1421104 -0.0033777566
-0.034941625 -0.02458605 -0.02075145 -0.03439116 -0.003952732 -0.08581157 -0.09861727 -0.016747706
0.057531584 -0.028553735 0.051431794 0.0022657956 0.05208158 0.07587468 0.03549844 -0.008404106
-0.027181398 0.029410938 -0.075802006 -0.097361565 0.13276215 -0.028104885 0.01251166 0.09932073
0.13029067 0.064455986 -0.031916343 -0.022257593 0.062684275 0.07233726 -0.021031471 0.07704692
0.15946288 0.033068236 0.041878883 -0.07864712 -0.11229366 0.04515159 0.007408997 -0.084092386
00000000: 8405 f3bb 530d d73c 2a05 f43a bb14 f23b
00000010: b1ab dabd 6f02 debd fc4d b8bc 6191 863d
00000020: e800 08be 6666 083b aad1 e2bc 36c4 35be
00000030: 8b83 f6bc dbe3 d83d e0d3 e43c 6f64 73bc
00000040: 981d e5bc a435 223c 2136 8d3d 7242 9fbd
00000050: eec5 1c3c d97a 29bd 6485 113e 5a5d 5dbb
00000060: f31e 0fbd af68 c9bc f2fe a9bc bfdd 0cbd
00000070: eb85 81bb fabd afbd daf7 c9bd 7c32 89bc
00000080: 3da6 6b3d 86e9 e9bc 25aa 523d be7d 143b
00000090: 7f53 553d 2f64 9b3d d066 113d 60b1 09bc
000000a0: 86ab debc 35ef f03c 153e 9bbd 8065 c7bd
000000b0: cdf2 073e 373c e6bc b5fd 4c3c ab68 cb3d
000000c0: eb6a 053e 8001 843d b6ba 02bd 8e55 b6bc
000000d0: 9d60 803d 8f25 943d 314a acbc c7ca 9d3d
000000e0: 3d4a 233e 8f72 073d 3189 2b3d be11 a1bd
000000f0: 38fa e5bd e0f0 383d 2cc7 f23b a138 acbd

gumbel_social_transformer.node_encoder_layers.0.linear1.weight f4 [128, 64]
-0.16258782 -0.11596041 -0.124177694 0.105781585 -0.020764878 -0.17230937 0.1553295 0.36209407
0.0054313666 0.3619026 -0.17268056 0.10975915 -0.18927518 0.09251236 -0.13095804 0.15213107
-0.34069616 -0.2780176 -0.27483732 0.018048203 0.38143206 -0.15133083 -0.19629698 0.076536566
0.05768742 0.09545582 -0.19682856 -0.053567044 -0.037372652 -0.2188346 0.02914854 0.3858778
-0.16082658 0.072088644 0.13404517 -0.009259362 -0.21413538 -0.1391693 0.1342281 -0.29824954
-0.009439418 -0.14727388 0.08073893 -0.17501901 0.24095784 0.053032342 -0.021858659 0.07823749
-0.1748703 0.0005264721 -0.33804166 -0.04102182 -0.05730606 -0.052913345 -0.07538842 0.062449977
-0.1006102 0.022875685 -0.039384346 0.06560479 0.12211121 0.3705369 0.026477108 -0.086952046
0.115675166 0.11382527 0.0998282 0.003076083 -0.085377745 -0.013509782 0.078611545 0.05763396
0.05592755 0.16439742 -0.018458925 0.10962574 -0.05980754 0.0943614 -0.16371015 -0.019071206
0.03721626 0.016484907 0.01463475 -0.11462612 0.119011186 -0.0185832 -0.20646755 -0.03788461
0.13631697 0.06683103 -0.13892159 0.0396519 0.11914317 -0.16911314 0.005741046 -0.03874957
0.16337511 0.20873351 -0.13066906 0.11094158 -0.24696513 -0.0400708 0.18434767 -0.119863905
-0.2052087 -0.20817238 -0.095209114 -0.2388951 0.01720533 0.113581896 0.09247827 -0.052969083
-0.10057994 -0.024737554 -0.011688541 -0.10583307 0.13533622 -0.031419914 -0.12125814 0.11129891
0.032276683 -0.09403059 0.07658258 -0.031546667 -0.12970535 -0.09731818 0.07012462 0.008817206
0.17107116 -0.010370581 0.16938171 0.21851394 0.025074711 -0.09630682 0.123194456 -0.014877591
-0.121296786 0.030063657 0.048267648 0.061116755 -0.11724451 0.20228581 -0.008346007 -0.09187622
-0.032225404 -0.09018446 -0.14411671 -0.06992311 -0.06245754 0.11841537 -0.117294535 -0.015568773
-0.009358045 -0.07620749 -0.012258628 -0.097306296 -0.003357556 -0.049306147 -0.065365426 0.09725978
0.039073523 0.074678056 -0.08544941 -0.026445726 -0.1430497 -0.12952949 0.10150467 -0.093871236
-0.18723223 -0.041437343 -0.11423176 -0.122186914 0.14738424 0.124779895 0.022204014 -0.14417736
0.06134899 0.052108902 0.035297275 0.012993445 0.0838226 -0.12358105 -0.039571054 0.042541053
0.09919042 -0.1394016 -0.0031835905 -0.04974891 -0.11121585 -0.09672676 -0.036218554 -0.04663966
0.066652745 0.13037777 0.10688741 -0.028726446 0.07614134 -0.029239355 -0.017958036 -0.02711797
0.012269996 0.09734926 0.0013700938 0.00996139 -0.10747457 0.045301713 0.029105932 -0.14031096
-0.12563385 -0.27138397 -0.080963366 -0.07402978 0.079892956 0.04980244 -0.20364062 -0.028037334
0.067824535 -0.054269906 -0.10331014 -0.031825762 0.13542274 -0.06895978 0.0070628067 0.088730514
0.053803496 0.23997694 -0.0031013256 0.024398908 -0.1262363 -0.124138206 0.105541475 -0.061262723
-0.040175065 -0.15521488 0.0065610646 -0.07990908 0.026866086 -0.08539458 -0.06771218 -0.0090259975
-0.09592395 0.06561004 -0.12542881 0.0621097 0.14606105 -0.021422187 -0.029215936 0.11278228
0.04125235 -0.13993204 -0.10133188 0.009614932 0.004392615 0.076470904 -0.12551476 -0.15517914
00000000: 6c7d 26be a77c edbd e050 febd 04a4 d83d
00000010: 1b1b aabc de71 30be b20e 1f3e 6564 b93e
00000020: 9bf9 b13b 4c4b b93e 2cd3 30be 68c9 e03d
00000030: 5ad1 41be 1f77 bd3d dd19 06be 3fc8 1b3e
00000040: ba6f aebe 5358 8ebe 7ab7 8cbe d3d9 933c
00000050: 104b c33e 78f6 1abe 1302 49be 34bf 9c3d
00000060: a549 6c3d 577e c33d 6d8d 49be 1e69 5bbd
00000070: 1114 19bd 2d16 60be ebc8 ee3c c691 c53e
00000080: b9af 24be 36a3 933d 2343 093e 94b4 17bc
00000090: 4e46 5bbe 6682 0ebe 1773 093e 2ab4 98be
000000a0: caa7 1abc f7ce 16be 745a a53d 2f38 33be
000000b0: a7bd 763e 7138 593d ee10 b3bc fa3a a03d
000000c0: 3311 33be f202 0a3a cc13 adbe 7f06 28bd
000000d0: c2b9 6abd aabb 58bd 3e65 9abd 8ccb 7f3d
000000e0: b80c cebd ca65 bb3c 7b51 21bd ce5b 863d
000000f0: 7115 fa3d 03b7 bd3e 85e6 d83c ea13 b2bd
00000100: 1ae7 ec3d 391d e93d ba72 cc3d 1c98 493b
00000110: 87da aebd 2258 5dbc 17ff a03d 9611 6c3d
00000120: 4914 653d cc57 283e 2c37 97bc 7683 e03d
00000130: c0f8 74bd 8d40 c13d a2a3 27be 383b 9cbc
00000140: 1470 183d 5b0b 873c 97c6 6f3c 19c1 eabd
00000150: 23bc f33d cc3b 98bc 3b6c 53be e52c 1bbd
00000160: ad96 0b3e b5de 883d 7641 0ebe 086a 223d
00000170: 5601 f43d ff2b 2dbe 621f bc3b deb7 1ebd
00000180: ce4b 273e 3dbe 553e 1cce 05be 5735 e33d
00000190: 6de4 7cbe 4721 24bd a3c5 3c3e 357b f5bd
000001a0: 3b22 52be 242b 55be fffc c2bd eba0 74be
000001b0: 31f2 8c3c a09d e83d 3f65 bd3d 1cf6 58bd
000001c0: dbfc cdbd 69a6 cabc 4b81 3fbc 02bf d8bd
000001d0: 9495 0a3e 2bb2 00bd 3056 f8bd aff0 e33d
000001e0: 8e34 043d 1c93 c0bd 54d7 9c3d 1437 01bd
000001f0: 7bd1 04be c14e c7bd 7f9d 8f3d 0b76 103c
00000200: 472d 2f3e 5fe9 29bc 6672 2d3e 1ec2 5f3e
00000210: 7b69 cd3c 833c c5bd 604d fc3d 24c1 73bc
00000220: 736a f8bd 0f48 f63c 4cb4 453d 9055 7a3d
00000230: e41d f0bd 0324 4f3e b1bd 08bc 9a29 bcbd
00000240: c9fe 03bd a1b2 b8bd 5593 13be d933 8fbd
00000250: 7ad3 7fbd c283 f23d 1e38 f0bd 2b14 7fbc
00000260: 7c52 19bc ac12 9cbd 6ad8 48bc 8648 c7bd
00000270: 710a 5cbb 3ef5 49bd 4fde 85bd 2330 c73d
00000280: 8f0b 203d cff0 983d 1a00 afbd b5a4 d8bc
00000290: 9f7b 12be 61a3 04be aee1 cf3d 903f c0bd
000002a0: ceb9 3fbe 34ba 29bd 57f2 e9bd 223d fabd
000002b0: e5eb 163e 9a8c ff3d 31e5 b53c 3ba3 13be
000002c0: 1449 7b3d 2570 553d e093 103d 75e2 543c
000002d0: 2fab ab3d 1018 fdbd 4215 22bd 873f 2e3d
000002e0: 5924 cb3d 4bbf 0ebe c9a3 50bb 83c5 4bbd
000002f0: 23c5 e3bd ae18 c6bd e859 14bd 3a09 3fbd
00000300: 3c81 883d c081 053e c9e7 da3d b953 ebbc
00000310: feef 9b3d 5f87 efbc bb1c 93bc 8126 debc
00000320: 1808 493c 0c5f c73d b894 b33a 1935 233c
00000330: a11b dcbd 4a8e 393d 906f ee3c adad 0fbe
00000340: 29a6 00be d7f2 8abe 1fd0 a5bd ed9c 97bd
00000350: eb9e a33d a5fd 4b3d 2b87 50be 8dae e5bc
00000360: 97e7 8a3d 1f4a 5ebd 4494 d3bd bb5b 02bd
00000370: 42ac 0a3e c93a 8dbd 1e6f e73b 58b8 b53d
00000380: 0e61 5c3d 84bc 753e 9c3f 4bbb 38e0 c73c
00000390: 1744 01be 2c3c febd 2126 d83d 9fee 7abd
000003a0: 9c8e 24bd a6f0 1ebe 33fe d63b 5fa7 a3bd
000003b0: 4416 dc3c 5be3 aebd afac 8abd c7e1 13bc
000003c0: c773 c4bd 8f5e 863d 6970 00be be66 7e3d
000003d0: 0791 153e 957d afbc 4256 efbc 65fa e63d
000003e0: 39f8 283d 584a 0fbe 1787 cfbd f387 1d3c
000003f0: edef 8f3b c79c 9c3d f186 00be 48e7 1ebe

gumbel_social_transformer.node_encoder_layers.0.linear1.bias f4 [128]
0.036412746 -0.1357652 0.04441321 -0.038927373 -0.119540244 0.08680079 -0.058253158 -0.017444165
-0.12121356 0.051065817 -0.02192846 0.030889148 0.04988859 0.056815647 -0.14146812 -0.04064406
-0.12420125 -0.09347857 -0.13654532 0.09949888 0.07605607 0.014715818 0.05562196 -0.106023796
-0.1361886 0.10386729 -0.19105886 -0.053806923 0.056581713 0.037912916 0.062360294 -0.09287909
0.06907669 -0.09475121 0.05859827 -0.14332278 -0.042160854 -0.1107229 -0.013784231 -0.10360582
-0.231907 0.102239855 0.067365736 -0.03228258 -0.092844024 0.10768067 0.10337043 -0.082183324
0.07772004 -0.11600093 -0.16310756 -0.078424536 -0.040156048 -0.117614046 -0.08097034 -0.16937174
-0.007290377 -0.05230584 -0.19680838 -0.25758767 -0.14284752 0.008920098 -0.023069069 0.021261793
-0.010965573 0.0550549 0.023185663 0.05698006 -0.14957501 0.0324426 -0.06466587 -0.14457652
-0.058247216 0.03895723 -0.10663695 0.031859607 0.08246982 -0.1750106 0.050666522 -0.08607051
-0.14177273 -0.030176299 0.06998367 -0.03674968 -0.107063994 -0.12414485 0.047312677 -0.06730742
0.11650731 0.03841033 0.04146904 0.0334548 -0.13895363 0.035576772 -0.07219167 -0.018958664
-0.11914977 -0.065824464 0.046671927 0.07557151 -0.09240976 -0.08810998 -0.23688428 -0.20023675
0.009225524 0.076075874 0.067959286 -0.13208385 -0.023389224 -0.039930336 -0.012473096 0.018152831
-0.043369167 0.04501937 -0.068251014 0.056104105 -0.09670083 -0.0962219 0.03691935 -0.20695066
-0.11799303 -0.13241093 -0.14940645 -0.06226628 -0.073509976 -0.01951337 0.030715413 -0.11252066
00000000: 8825 153d 0806 0bbe a0ea 353d 4f72 1fbd
00000010: 84d1 f4bd 9dc4 b13d dd9a 6ebd 11e7 8ebc
00000020: d13e f8bd 642a 513d 50a3 b3bc 3d0b fd3c
00000030: fa57 4c3d 86b7 683d 05dd 10be 637a 26bd
00000040: 3a5d febd b171 bfbd 89d2 0bbe 12c6 cb3d
00000050: 49c3 9b3d 9d1a 713c dad3 633d 0123 d9bd
00000060: 0675 0bbe 60b8 d43d efa4 43be a664 5cbd
00000070: 3ac2 673d 934a 1b3d 826d 7f3d 6437 bebd
00000080: 1478 8d3d ec0c c2bd bd04 703d 35c3 12be
00000090: dcb0 2cbd b0c2 e2bd 41d7 61bc 4a2f d4bd
000000a0: 0779 6dbe 2163 d13d 0cf7 893d bd3a 04bd
000000b0: 0225 bebd af87 dc3d e0b3 d33d bb4f a8bd
000000c0: af2b 9f3d e591 edbd ab05 27be 0b9d a0bd
000000d0: ab7a 24bd a2df f0bd c7d3 a5bd c96f 2dbe
000000e0: 1de4 eebb a63e 56bd 2388 49be 88e2 83be
000000f0: 9f46 12be 9a25 123c 58fb bcbc 362d ae3c
00000100: f2a8 33bc 3f81 613d dcef bd3c ec63 693d
00000110: 312a 19be 88e2 043d 8a6f 84bd de0b 14be
00000120: a294 6ebd 9e91 1f3d 7964 dabd 387f 023d
00000130: f0e5 a83d fb35 33be b387 4f3d bc45 b0bd
00000140: df2c 11be 4934 f7bc 9953 8f3d d586 16bd
00000150: 5e44 dbbd a83f febd f0ca 413d 79d8 89bd
00000160: 629b ee3d 2654 1d3d 71db 293d e607 093d
00000170: dc49 0ebe f3b8 113d 3ad9 93bd 334f 9bbc
00000180: cb04 f4bd face 86bd 102b 3f3d 3cc5 9a3d
00000190: 5441 bdbd 0173 b4bd cb91 72be dd0a 4dbe
000001a0: a726 173c abcd 9b3d 3d2e 8b3d fd40 07be
000001b0: c29a bfbc fe8d 23bd f55b 4cbc 3fb5 943c
000001c0: dea3 31bd 3b66 383d 30c7 8bbd 6bcd 653d
000001d0: 160b c6bd fd0f c5bd bf38 173d e0ea 53be
000001e0: 54a6 f1bd bb96 07be 01fe 18be ed0a 7fbd
000001f0: 668c 96bd 81da 9fbc e49e fb3c 3b71 e6bd

gumbel_social_transformer.node_encoder_layers.0.linear2.weight f4 [64, 128]
-0.028603684 -0.063334174 -0.053419996 0.018648004 0.0029507119 0.15159746 -0.27705902 -0.24686395
-0.10902418 0.07283985 0.26993895 -0.039397944 -0.047066834 -0.28927162 0.082042724 -0.1334723
0.15038513 0.03331285 -0.06213341 -0.14746203 0.058782194 0.1080106 -0.060816832 -0.09393502
-0.0361696 0.054096457 -0.006793285 0.020032922 0.017885817 -0.28625655 -0.108703226 -0.21289793
-0.18494755 -0.0038444062 -0.08339031 -0.103314035 0.010584548 -0.09929844 0.083915725 0.054306395
-0.037814602 -0.04325944 -0.15629193 0.023461431 0.08577616 0.034811515 -0.380476 -0.14058532
0.06982009 0.1916281 0.17890085 -0.0043074167 -0.12927416 -0.06280922 0.003337367 -0.0020185048
-0.2158492 -0.12696163 -0.25591126 0.07683082 0.026415328 -0.009694179 -0.07375546 -0.13311158
-0.1133657 -0.07359313 -0.098533 -0.16307053 -0.047134887 0.056518078 -0.26620328 0.05182247
-0.15946394 -0.405866 -0.021898989 -0.15787861 -0.09410673 -0.05670113 0.010033741 -0.07643412
-0.03419345 0.0016270635 -0.15780048 -0.072704256 -0.07223452 -0.016880548 -0.02078782 0.11540667
-0.0067299423 -0.0119521255 -0.0030490153 0.07446621 0.06295265 -0.034804437 -0.043452647 -0.05260839
-0.595545 -0.12310786 0.037813623 -0.047092576 -0.11662388 -0.08823643 -0.11472931 0.029854324
-0.10795443 -0.1072252 0.05325514 0.022025706 0.07356266 0.114594124 -0.09712985 -0.05011525
-0.26566535 -0.11332224 -0.04545749 -0.08276296 0.21247263 -0.10558459 -0.039755855 -0.024375755
-0.19929107 -0.1027761 0.025630029 0.032518115 -0.044159636 -0.3524783 -0.3573929 -0.13527057
-0.085999675 -0.10081516 -0.0034815257 -0.13414143 0.17805842 0.02209711 -0.33519754 -0.08694438
-0.40610933 -0.09231341 -0.047465894 0.13955075 -0.23171166 -0.32851964 -0.0109331515 -0.033324342
0.38585845 0.102578685 -0.015656577 -0.14690977 -0.11430668 0.02745969 -0.03290971 0.015499468
0.17899655 0.19386028 -0.22649139 -0.0006995218 -0.15343964 -0.27721334 0.15305568 -0.2286493
-0.331498 -0.08037917 -0.038120367 -0.05844827 0.07075107 -0.10822346 0.11236092 -0.07296873
0.03684066 -0.0058548637 -0.29655874 0.020701155 0.018133277 0.2629558 -0.13603152 -0.23697288
-0.11231784 0.100573026 0.12991482 0.04132616 0.17117631 -0.13397929 -0.15966073 0.022229359
-0.043929536 -0.25939843 0.1965745 -0.06473045 0.1659677 0.32276112 -0.16100167 -0.15372303
-0.09383119 -0.0638245 -0.32197133 -0.02657009 -0.3082803 -0.033242065 -0.0051314766 0.035206493
0.058899205 -0.29382232 0.12805915 -0.014154476 -0.020191228 -0.04854767 0.1728962 0.21785536
-0.01515038 0.013949481 -0.21433188 -0.19526644 -0.08983505 -0.0069667525 -0.20045242 0.21376038
0.15914614 -0.19205059 0.044327427 0.11863468 0.06743296 -0.24574097 -0.021141514 -0.04032531
-0.491773 -0.15452541 -0.08253933 -0.0800465 0.0098479325 -0.11534193 0.19598529 0.034340154
0.038209032 -0.1591248 0.13753395 0.067361735 0.06354502 0.08369418 -0.2188277 -0.069912404
-0.38161656 -0.25195575 0.010016832 0.014789002 0.10873491 -0.14020656 -0.10878242 0.14449054
-0.2600192 0.15651855 -0.003340118 0.086990826 0.29232526 -0.33932093 -0.5696257 -0.20521116
00000000: 4652 eabc 59b5 81bd edce 5abd b3c3 983c
00000010: bb60 413b 5d3c 1b3e aeda 8dbe e7c9 7cbe
00000020: 1248 dfbd 0f2d 953d 7035 8a3e bd5f 21bd
00000030: 27c9 40bd 691b 94be 0406 a83d f6ac 08be
00000040: 8ffe 193e 0e73 083d 9a7f 7ebd 4900 17be
00000050: 99c5 703d a934 dd3d 121b 79bd 0161 c0bd
00000060: 9326 14bd 3f94 5d3d 349a debb 151c a43c
00000070: 4785 923c 3890 92be cc9f debd ea01 5abe
00000080: e462 3dbe 6ff2 7bbb 8ac8 aabd 4f96 d3bd
00000090: d06a 2d3c fb5c cbbd 02dc ab3d 6270 5e3d
000000a0: 7ce3 1abd d030 31bd fe0a 20be 3032 c03c
000000b0: 69ab af3d 8596 0e3d c0cd c2be 99f5 0fbe
000000c0: d6fd 8e3d 283a 443e c931 373e 3b25 8dbb
000000d0: 7260 04be 1fa2 80bd bab7 5a3b e448 04bb
000000e0: 9307 5dbe 3b02 02be cd06 83be 7a59 9d3d
000000f0: f564 d83c 55d4 1ebc 1a0d 97bd 674e 08be
00000100: 472c e8bd ffb7 96bd abcb c9bd f6fb 26be
00000110: 8310 41bd 807f 673d cc4b 88be cc43 543d
00000120: 844a 23be abcd cfbe 8265 b3bc eeaa 21be
00000130: 07bb c0bd 723f 68bd 8f64 243c 7e89 9cbd
00000140: 6e0e 0cbd 3143 d53a 7396 21be f8e5 94bd
00000150: b1ef 93bd 1349 8abc 384b aabc 555a ec3d
00000160: d986 dcbb d9d2 43bc fdd1 47bb be81 983d
00000170: 52ed 803d 198f 0ebd 67fb 31bd e57b 57bd
00000180: a375 18bf f91f fcbd 75e2 1a3d 25e4 40bd
00000190: 80d8 eebd 4db5 b4bd 33f7 eabd 0e91 f43c
000001a0: 3617 ddbd e398 dbbd 1022 5a3d 416f b43c
000001b0: 05a8 963d 53b0 ea3d 04ec c6bd a645 4dbd
000001c0: 4a05 88be 7e15 e8bd a231 3abd a07f a9bd
000001d0: 6d92 593e bc3c d8bd 09d7 22bd aaaf c7bc
000001e0: f512 4cbe 477c d2bd 11f6 d13c b731 053d
000001f0: bce0 34bd 0978 b4be 34fc b6be 5e84 0abe
00000200: 9920 b0bd 2e78 cebd 4f2a 64bb 5f5c 09be
00000210: f254 363e 0005 b53c 039f abbe e50f b2bd
00000220: 90ed cfbe d00e bdbd 996b 42bd 64e6 0e3e
00000230: d245 6dbe ba33 a8be f620 33bc 1b7f 08bd
00000240: 3d8f c53e c614 d23d 3942 80bc 846f 16be
00000250: 9f19 eabd 25f3 e03c 55cc 06bd 7bf1 7d3c
00000260: df4a 373e 4f83 463e 5ced 67be 1d60 37ba
00000270: 481f 1dbe e8ee 8dbe a1ba 1c3e 0b23 6abe
00000280: 1bba a9be d69d a4bd 1a24 1cbd 7467 6fbd
00000290: f0e5 903d 43a4 ddbd 7b1d e63d a170 95bd
000002a0: 3be6 163d 28da bfbb 8cd6 97be 7895 a93c
000002b0: 3d8c 943c 25a2 863e d94b 0bbe 05a9 72be
000002c0: e506 e6bd 3bf9 cd3d 6408 053e 9f45 293d
000002d0: d848 2f3e de31 09be 1a7e 23be 581a b63c
000002e0: 75ef 33bd dfcf 84be d34a 493e 6691 84bd
000002f0: 70f3 293e f240 a53e 9fdd 24be 9269 1dbe
00000300: 912a c0bd 6bb6 82bd 6dd9 a4be 84a9 d9bc
00000310: ead6 9dbe d528 08bd f225 a8bb af34 103d
00000320: 4b40 713d e16f 96be f021 033e 2de8 67bc
00000330: 1368 a5bc ecd9 46bd b40b 313e 7a15 5f3e
00000340: 4d39 78bc 5d8c 643c d179 5bbe edf3 47be
00000350: 70fb b7bd 5b49 e4bb 6643 4dbe 00e4 5a3e
00000360: 35f7 223e e9a8 44be ad90 353d bdf6 f23d
00000370: 4b1a 8a3d 85a3 7bbe f830 adbc 272c 25bd
00000380: acc9 fbbe e93b 1ebe 610a a9bd 6bef a3bd
00000390: 3959 213c 6438 ecbd 5eb0 483e 43a8 0c3d
000003a0: 1381 1c3d 9df1 22be b3d5 0c3e f3f4 893d
000003b0: e423 823d db67 ab3d 5e14 60be 3c2e 8fbd
000003c0: 3f63 c3be 5800 81be a31d 243c 924d 723c
000003d0: 69b0 de3d 4f92 0fbe 51c9 debd 54f5 133e
000003e0: 3d21 85be 6646 203e e2e5 5abb 3f28 b23d
000003f0: a8ab 953e 79bb adbe fdd2 11bf e022 52be

gumbel_social_transformer.node_encoder_layers.0.linear2.bias f4 [64]
0.15454029 0.11738349 0.06312823 0.1572917 0.103928894 0.25284976 0.013341433 -0.017532215
0.0017708576 0.12280169 -0.011990892 -0.0027897917 -0.16145152 0.19279149 -0.14526738 0.015145443
0.027284348 -0.06363485 -0.04879044 0.13670568 0.054787103 -0.02429573 -0.008444141 0.012851795
0.06132151 0.006612341 -0.1519077 -0.16363798 0.02080524 -0.058288038 -0.020210525 0.043142837
0.22957318 0.049477573 0.0287966 0.041480586 -0.15610315 -0.030150117 -0.0015023737 0.17887498
-0.046045754 0.006327837 0.0051526707 -0.19308311 0.09056352 -0.021593967 -0.03647849 -0.032721817
-0.031156944 0.068473876 0.0037089959 0.008280863 0.0853303 -0.15913251 -0.08273797 0.0028188142
0.029453808 -0.15778014 0.06113439 0.06848803 -0.08367451 -0.0017785856 -0.16359468 -0.02789753
00000000: cf3f 1e3e c166 f03d 6049 813d 1311 213e
00000010: acd8 d43d 8675 813e 0796 5a3c b89f 8fbc
00000020: 1f1c e83a 747f fb3d 7275 44bc f0d4 36bb
00000030: 8c53 25be 226b 453e f9c0 14be 9824 783c
00000040: 6d83 df3c fd52 82bd 7cd8 47bd 93fc 0b3e
00000050: 7168 603d d707 c7bc 4b59 0abc 5690 523c
00000060: 432c 7b3d 56ac d83b b18d 1bbe b790 27be
00000070: c06f aa3c 70bf 6ebd 8b90 a5bc 8bb6 303d
00000080: 3b15 6b3e ffa8 4a3d d9e6 eb3c 8ce7 293d
00000090: 81d9 1fbe 61fd f6bc 4ceb c4ba 012b 373e
000000a0: 799a 3cbd be59 cf3b bcd7 a83b 94b7 45be
000000b0: 5e79 b93d d5e5 b0bc 786a 15bd 5007 06bd
000000c0: d93c ffbc 083c 8c3d a012 733b 75ac 073c
000000d0: a7c1 ae3d a2f3 22be 8672 a9bd dbbb 383b
000000e0: 1d49 f13c 1e91 21be 0e68 7a3d 7443 8c3d
000000f0: 8b5d abbd 6e1f e9ba 5d85 27be 5c89 e4bc
